NetworkSaver/conv3_weight.npy (npy, 6480 bytes, 1 tensors)

array f4 [1, 2, 20, 40]
000000 f3 99 19 be 96 c3 59 3e 42 2a 58 be 10 0b 6f be
       -0.15000133 0.21266016 -0.2110987 -0.23344064
000010 7a 4b eb bc 98 7f 85 3e 57 f4 b2 3d 67 d6 92 bc
       -0.028722513 0.2607391 0.087380104 -0.0179245
000020 b0 80 cc bd 18 03 ad bd 51 a7 ba be 76 86 e1 bd
       -0.09985483 -0.08447856 -0.36455777 -0.110119745
000030 a6 2d e2 bc 8d de 2f be 06 6e 82 be fb 4f 8e 3d
       -0.027609657 -0.1717474 -0.25474566 0.06948849
000040 05 59 95 be 6a 26 f4 be 60 f1 0f be 38 5a 9a bd
       -0.2916948 -0.47685558 -0.14056921 -0.07536739
000050 56 0e 26 3e 55 d2 50 bd 7b 1a 39 be 9e d4 0d 3e
       0.16216406 -0.05098184 -0.18076508 0.13850638
000060 2e dc 37 3d 3a 69 94 bd 53 e3 a0 be ef 0d fd bd
       0.044887714 -0.07246633 -0.31423435 -0.12356173
000070 52 00 b0 3c 59 1d 7e bd 06 59 53 be 85 22 fc be
       0.021484528 -0.062039707 -0.20639428 -0.49245086
000080 3d f3 0a be 41 42 bf 3d 7e 5c fa be 70 69 0a bf
       -0.1356935 0.09338809 -0.4889869 -0.54067135
000090 2e 02 72 be e8 ae 5b 3e b0 2b 94 bc 97 50 62 3d
       -0.23633644 0.2145344 -0.018087238 0.055252638
0000a0 ea f6 12 3d 69 f9 84 3e 8f 0f 3f be af b7 aa be
       0.035880007 0.25971535 -0.18658279 -0.33343264
0000b0 b5 d3 21 3e 44 58 79 be 29 6c c8 be ad 40 ad bb
       0.15803416 -0.24350077 -0.3914502 -0.005287251
0000c0 bb 9f 68 bd a3 0e 2a be 75 a4 0d 3d 09 b7 79 3e
       -0.056792956 -0.16607146 0.034580667 0.24386229
0000d0 fd 17 76 be 40 b9 db 3d 84 08 18 bd 7a ea 80 3e
       -0.24032588 0.10728693 -0.037117496 0.2517889
0000e0 c0 3d 32 be 16 b0 00 3f 1a ec a2 3d a9 fe b6 be
       -0.17406368 0.50268686 0.07955189 -0.35741165
0000f0 33 da 8f bd 95 4c 11 bc 85 b7 d2 3c b2 40 94 bc
       -0.0702404 -0.008868356 0.025722275 -0.018097255
000100 4c 34 bb bd 00 67 f1 bc 9a 7e 78 3d 2c d1 c1 bd
       -0.09140834 -0.02946806 0.06066761 -0.094637245
000110 c1 c0 5d 3e 01 39 6a bd e8 e8 20 3e 36 17 c4 3e
       0.21655561 -0.05718327 0.15713847 0.3829896
000120 22 aa f1 3d d3 74 6f be c2 37 a6 3e d3 e6 4e 3e
       0.118000284 -0.23384409 0.32464415 0.2020524
000130 5e b2 d0 bd 10 cf 96 be ad 9f 3a bd ec 67 83 3d
       -0.10190271 -0.2945485 -0.045562435 0.06416306
000140 c3 5e f1 bd 28 b2 d3 3e 57 ea c6 3d fb dc 2b be
       -0.117856525 0.4134686 0.097126655 -0.16783516
000150 24 da b6 3e 5a 62 99 be 61 4a 53 3e 8d 0e b0 bc
       0.35713303 -0.2995785 0.20633842 -0.021491313
000160 83 80 96 bc 00 28 7c bd 05 9f c5 3d 46 bc b6 3d
       -0.018371826 -0.061561584 0.09649471 0.08922629
000170 b9 fe e1 3b b0 4f 51 be 2f b8 0c bf 96 29 5c bf
       0.0068968204 -0.20440555 -0.5496854 -0.86000955
000180 c3 a9 1d bd e2 41 12 3f 3c 97 8d be 28 b7 43 be
       -0.038491976 0.5713178 -0.27654445 -0.19112837
000190 30 87 47 be 07 74 15 be 61 97 10 be f5 58 d4 3d
       -0.19485164 -0.14595042 -0.14120246 0.1036853
0001a0 c6 66 cd be 48 7f 8b be c5 f2 0d 3f 6c 80 ec be
       -0.40117472 -0.27245545 0.5544856 -0.46191728
0001b0 ce 12 18 3f 54 7f 95 3e eb 5a 0a 3e 77 a8 03 3f
       0.59403694 0.29198706 0.13511245 0.5142893
0001c0 60 22 b0 be 39 e9 fe 3e c9 d6 d7 3e 25 17 11 3f
       -0.34401226 0.4978731 0.42156056 0.5667594
0001d0 87 ff 07 3f 9f b5 2a bd ba 7b 8f 3d fb 81 9c be
       0.5312428 -0.041677114 0.07006021 -0.30567917
0001e0 53 f1 3a bd 91 4d 48 3e 62 d3 d7 bb 91 6a 87 be
       -0.0456403 0.19560839 -0.006586478 -0.2644849
0001f0 01 4c b6 be 71 eb ac be 54 38 a5 3e 41 10 99 3e
       -0.3560486 -0.33773378 0.32269537 0.29895213
000200 4b 77 ae 3d 25 8a aa bd 8e 37 08 3d 72 5d d6 3e
       0.08518847 -0.0832713 0.033256106 0.41868168
000210 b1 ab a6 bd b7 6f e5 3d 5b 5d 12 bf 8f d6 1a be
       -0.08138216 0.112029485 -0.571737 -0.1512091
000220 ab 80 0f be 62 90 91 3e b5 77 0a be 1c 97 71 be
       -0.14013927 0.28430468 -0.13522227 -0.235928
000230 20 35 78 3e f7 d2 4e be 6e 29 3a be 46 6c 0a 3d
       0.24239016 -0.20197664 -0.18179867 0.033794664
000240 69 39 3d be 72 cd d9 bd 71 44 ce 3d 67 56 57 3e
       -0.18478931 -0.10634889 0.10071648 0.21029054
000250 81 7b dd 3d 15 87 7a be 09 34 e1 bd f2 28 c6 3e
       0.10814572 -0.24465592 -0.10996253 0.38703114
000260 bc 83 59 3e 99 b5 09 3d d9 35 6d 3d ab bd 6a 3e
       0.21241659 0.03362045 0.05791268 0.22923915
000270 74 7e 56 3e f8 e3 06 3f d7 0d 1a 3e 07 03 a4 3e
       0.20946676 0.526916 0.15044342 0.3203356
000280 07 ec 1d be 7d 10 df bd 28 1a 02 bd 2a 7a ed be
       -0.15422069 -0.10891817 -0.031763226 -0.46382266
000290 0d fe 2b bd d5 c9 42 be af ff c9 3e b0 45 19 3d
       -0.04199033 -0.19022305 0.39452884 0.037419975
0002a0 6e a9 91 bd e7 d1 61 bd 53 69 27 3e 4b 53 4d be
       -0.07112394 -0.05513182 0.16348772 -0.20051305
0002b0 90 7c 1e be cb 77 23 be 47 63 bd 3d ac 1c b7 be
       -0.15477204 -0.15963666 0.09247451 -0.35764062
0002c0 38 70 c4 be 73 35 3b 3e e4 8c 1f 3e e6 a1 58 3e
       -0.38366866 0.18282108 0.1558109 0.2115551
0002d0 df c8 4c 3c d1 16 26 3d e5 81 86 3e f3 70 2c 3d
       0.012499063 0.040549103 0.26270977 0.042099904
0002e0 65 13 28 3e f7 13 2c be 8f f2 4d 3e 5a 16 57 be
       0.16413648 -0.16804491 0.2011206 -0.2100462
0002f0 f7 87 2f be b8 af a6 3c 36 1d 3e 3e 41 a8 9c 3e
       -0.1714171 0.020347461 0.1856583 0.30597118
000300 1a 77 96 be e6 7c b9 3e 61 ce b6 bc 96 f2 3f 3e
       -0.29387742 0.36228102 -0.022315206 0.18744883
000310 02 bb 2d 3e 58 3c 10 3e 51 77 03 3f 18 54 91 be
       0.16965869 0.1408552 0.5135394 -0.2838447
000320 0c 86 ef bc 5a a4 62 be 68 db 2e bd f3 bf f5 3e
       -0.029238723 -0.22133008 -0.04268971 0.47998008
000330 ec 28 0f 3c a1 c6 59 3e 08 8f 53 3d b3 23 82 bd
       0.008737784 0.21267177 0.051650077 -0.06354465
000340 70 e2 fb bd da 3f 24 be 6d b7 3c bd 92 35 11 3d
       -0.12299049 -0.16039982 -0.046073366 0.03545148
000350 32 19 ea 3d b0 fb 13 be 81 59 be be 0b 2d 16 be
       0.11430587 -0.1445148 -0.3717766 -0.1466562
000360 17 33 b7 bd 38 f8 7f be d8 07 d9 3e 15 52 22 be
       -0.089452915 -0.24997032 0.42388797 -0.15851624
000370 df 23 97 be 3b aa 43 3d 62 92 0a 3c 32 d4 b7 3c
       -0.29519555 0.047769766 0.008457752 0.02244005
000380 79 a5 84 3e ce ea 4e be 46 85 8d be c6 9e ac be
       0.25907496 -0.20206758 -0.27640742 -0.33714885
000390 4a 6e 04 be d0 0f e6 be 3f a6 0c 3f 6c d1 33 3e
       -0.12932697 -0.4493394 0.5494117 0.17560357
0003a0 6b 93 59 3f dc 7a f4 bc 18 88 eb bd 10 5d a9 bd
       0.84990567 -0.02984374 -0.11500567 -0.082697034
0003b0 32 0b 95 3e 2b 90 3d be 16 e0 5b 3d 37 1d d0 3e
       0.29110104 -0.18512027 0.053680502 0.4064729
0003c0 4b a4 e3 3d 47 8a 45 be 11 df c4 bd f8 ed 5b 3d
       0.11115321 -0.1929103 -0.09612859 0.05369374
0003d0 86 0c dc 3e 6f 1c b3 3e 47 6b 00 be f7 35 95 3e
       0.42978305 0.3498263 -0.12540923 0.29142734
0003e0 c0 e4 1b bc 7b 47 e3 bc f2 dc 14 3d 86 9e 40 3c
       -0.0095149875 -0.027744045 0.036343522 0.011756545
0003f0 70 7c 53 be 48 5f 19 be b0 d9 30 3e 95 0d b0 3d
       -0.20652938 -0.14977753 0.17270541 0.085963406
