NetworkSaver/conv3_weight.npy (npy, 16080 bytes, 1 tensors)

array f4 [1, 5, 20, 40]
0	0xbd01bf49	-0.031676564
1	0xbc521ba4	-0.012823973
2	0xbd9851aa	-0.07437451
3	0x3e0b35c3	0.13594727
4	0xbe5a5fd4	-0.21325618
5	0xbd8bd1d7	-0.06827133
6	0xbcbdae15	-0.023154298
7	0x3d6b77d7	0.057487335
8	0xbd6013bd	-0.054706324
9	0xbe150171	-0.14551331
10	0xbc6be27b	-0.014397259
11	0xbd8bae9c	-0.068204135
12	0x3dbc5cdc	0.09197399
13	0x3df99ea4	0.121884614
14	0x3bf5fb7a	0.007506785
15	0x3d322a9b	0.043497663
16	0x3d0cc28b	0.034365218
17	0xba00b2fd	-0.0004909484
18	0xbe00b1a2	-0.12567762
19	0x3c9b1a7e	0.01893353
20	0xbdb39945	-0.08769468
21	0xbe24c291	-0.16089846
22	0x3da3819f	0.07983708
23	0x3df3a460	0.118965864
24	0x3c6f2ce7	0.014598108
25	0xbce428e3	-0.027851528
26	0x3e18616c	0.14880913
27	0xbda9587c	-0.0826883
28	0xbceb77f4	-0.028743722
29	0x3e314cef	0.17314504
30	0xbd8f267f	-0.069897644
31	0xbd53d189	-0.0517135
32	0x3d36da27	0.04464164
33	0x3df7ee8c	0.12106046
34	0xbd7dba4d	-0.06194525
35	0xbdfe6baa	-0.12422879
36	0x3d38b0dd	0.045090545
37	0xbe822103	-0.2541581
38	0x3d6abf3f	0.057311293
39	0xbc729287	-0.014805443
40	0xbe3dbe48	-0.18529618
41	0xbd49e4cb	-0.04929046
42	0xbd9ba9f6	-0.07600777
43	0xbe05791b	-0.1303448
44	0xbe2980f3	-0.16553096
45	0x3cdcfd53	0.026976263
46	0x3ac2a842	0.001485117
47	0x3b3cd102	0.0028811102
48	0xbe4b8ebb	-0.19878666
49	0xbcf4bc68	-0.029874995
50	0x3cf49906	0.029858124
51	0x3daf95b1	0.08573473
52	0x3d91e7de	0.07124303
53	0xbe01eb15	-0.12687333
54	0x3dc0a234	0.09405938
55	0x3e13e9dd	0.1444468
56	0x3db9e670	0.090771556
57	0xbdf44998	-0.119280994
58	0xbcab22ff	-0.02089071
59	0xbd00f1fb	-0.03148077
60	0x3cc32065	0.023819158
61	0x3e1de050	0.154176
62	0xbe3f7c25	-0.18699701
63	0xbe2a7302	-0.16645434
64	0x3dac9cc2	0.08428337
65	0x3e111ac0	0.1417036
66	0xbd96c42d	-0.07361636
67	0xbd319274	-0.04335256
68	0xbd057547	-0.032582548
69	0xbc574c05	-0.013140683
70	0xbe6ebcb9	-0.2331418
71	0xbd020f5f	-0.03175294
72	0xbe3ae086	-0.18249711
73	0x3e1525b5	0.14565165
74	0x3daa7866	0.083237454
75	0xbcc744dc	-0.024324827
76	0xbc9364d0	-0.017992407
77	0x3df2f863	0.11863782
78	0x3da34ad1	0.079732545
79	0x3e19c2ec	0.15015763
80	0xbd4bce51	-0.049757306
81	0xbcf8bd6e	-0.030363765
82	0x3deacb6d	0.11464582
83	0x3e34d7f5	0.17660506
84	0x3d9c178f	0.07621681
85	0xbe030345	-0.12794216
86	0x3da6d23c	0.08145568
87	0x3d90393a	0.07042165
88	0x3d0750f9	0.033036206
89	0xbcbd75cd	-0.02312746
90	0xbdb093b7	-0.08621924
91	0x3df0d98f	0.11760246
92	0xbdf1df24	-0.11810139
93	0xbd8694d6	-0.06571357
94	0xbd5e51cf	-0.054277238
95	0x3d15624d	0.0364707
96	0x3dfbfb4e	0.12303792
97	0xbae71eb9	-0.0017633057
98	0xbd6523f1	-0.05594248
99	0x3e0a3035	0.13494952
100	0x3d25f330	0.040515125
101	0x3dd60760	0.104506254
102	0xbbd771b7	-0.006574835
103	0x3d8e46ef	0.06947123
104	0x3d712b8b	0.058879416
105	0xbd95e434	-0.07318917
106	0x3d985f73	0.074400805
107	0xbd837354	-0.064184815
108	0x3d89f491	0.067361005
109	0x3df86174	0.12127963
110	0xbd4f6eee	-0.0506429
111	0xbd795fae	-0.060882263
112	0x3de0c03e	0.10974167
113	0xbe3eaf30	-0.18621516
114	0x3cce0497	0.025148673
115	0xbe52cd91	-0.2058623
116	0x3d404cd0	0.046948254
117	0x3d6814f4	0.056660607
118	0xbdd762e8	-0.10516912
119	0xbc99c365	-0.01876993
120	0xbd937319	-0.071996875
121	0x3d5312ac	0.05153148
122	0xbc9112f0	-0.017709225
123	0x3e4c8855	0.19973882
124	0xbd8d043a	-0.06885572
125	0x3d2a5cb9	0.041592333
126	0x3cd06dd3	0.025442993
127	0xbd85af33	-0.06527557
128	0x3d9b5732	0.075849906
129	0xbe25ffa4	-0.162108
130	0xbd499a55	-0.049219448
131	0xbcd66363	-0.026170438
132	0xbd1058c5	-0.035240907
133	0xbd159b54	-0.036525086
134	0xbdd7dbb0	-0.10539949
135	0xbd859b00	-0.065237045
136	0xbe3d3e46	-0.18480787
137	0xbe0b1739	-0.13583077
138	0x3dc073e7	0.093971066
139	0xbc75bf85	-0.014999275
140	0x3da6f732	0.081526175
141	0x3c2a7dbf	0.010405957
142	0xbdcaf1e7	-0.099094205
143	0xbdbe4927	-0.092912965
144	0x3e0da856	0.13833746
145	0xbbbe09a7	-0.0057994905
146	0xbd0664af	-0.032810863
147	0x3a212edb	0.00061486446
148	0x3d25d672	0.040487714
149	0xbdc8c135	-0.09802476
150	0x3da5a918	0.08088893
151	0x3dd3b8dc	0.103379935
152	0xbb9941ca	-0.004677032
153	0xbdb52fbd	-0.08846996
154	0x3dc5a861	0.09651256
155	0x3dae5d28	0.08513862
156	0x3a42be89	0.00074289046
157	0x3e466c38	0.1937722
158	0xbc617382	-0.013760449
159	0x3e343731	0.17599179
160	0x3da90dfa	0.08254619
161	0xbdc9045b	-0.09815284
162	0x3e15a13d	0.14612289
163	0xbb03da3b	-0.002011909
164	0x3cec2131	0.02882442
165	0x3e143bca	0.14475933
166	0x3d826053	0.06366029
167	0xbdffc224	-0.12488201
168	0xbe036818	-0.12832677
169	0xbcb0f19d	-0.021599585
170	0xbd3fccba	-0.0468261
171	0xbde93b13	-0.11388221
172	0xbc881fc8	-0.016616717
173	0x3d9b3660	0.075787306
174	0x3de7b837	0.11314433
175	0x3cb0a30e	0.021562126
176	0xbd0afafa	-0.033930756
177	0x3abee405	0.0014563805
178	0xbd593e2d	-0.05303781
179	0x3cece5de	0.028918203
180	0xbe3d94fb	-0.18513863
181	0x3d50dbd9	0.050990913
182	0xbdcbc41c	-0.09949514
183	0xbd5f124e	-0.054460816
184	0x3d8ce19f	0.06878971
185	0xbdad0d28	-0.08449775
186	0x3d65e0fd	0.05612277
187	0xbcc2215c	-0.023697548
188	0x3dbd2d28	0.092371285
189	0x3e1757b7	0.14779554
190	0x3de772f6	0.11301224
191	0x3e1d5e34	0.15367967
192	0x3d5b113f	0.053483244
193	0x3d169abb	0.036768656
194	0x3db290ed	0.08719049
195	0xbc0b4a01	-0.008501531
196	0x3ded840a	0.1159745
197	0xbda98846	-0.08277945
198	0x3d823e09	0.063594885
199	0x3cb6543b	0.022256961
200	0x3d1f2555	0.038853962
201	0xbe28a961	-0.16470863
202	0xbde0d5e1	-0.10978294
203	0xbd38fe89	-0.04516462
204	0xbd9c028e	-0.07617675
205	0xbd83e4c0	-0.06440115
206	0x3d1625d2	0.036657162
207	0xbdbd5475	-0.092446245
208	0x3bf11ffa	0.007358548
209	0xbdabe3a3	-0.08393028
210	0x3ce67ba6	0.028135132
211	0x3dfb72b8	0.1227774
212	0xbe0b2ae6	-0.13590583
213	0x3da1e9ae	0.07905899
214	0xbd665f8a	-0.056243457
215	0xbda83c60	-0.082146406
216	0x3e52430c	0.20533389
217	0xbc97df85	-0.0185392
218	0xbc084bab	-0.008318822
219	0x3e0aaf30	0.13543391
220	0x3e15e043	0.1463633
221	0x3d8df3bb	0.069312535
222	0xbda35a53	-0.07976212
223	0x3e4b63d3	0.19862299
224	0xbc79b75b	-0.015241469
225	0xbd016269	-0.031587992
226	0x3d1f4c7b	0.038891297
227	0x3c91e17b	0.017807713
228	0xbddd2d5a	-0.10799666
229	0x3d8d087e	0.068863854
230	0xbd016e24	-0.03159918
231	0xbd3463a6	-0.044040345
232	0x3e63607d	0.22204776
233	0xbd82fe95	-0.06396214
234	0x3c3cd66c	0.0115257315
235	0x3dcb1f04	0.09918025
236	0x3b8d2961	0.0043079113
237	0xbd37e56d	-0.04489653
238	0x3da244a1	0.07923246
239	0x3de7f304	0.113256484
240	0xbda578bd	-0.080796696
241	0xbd12200d	-0.035675097
242	0xbe32f9e6	-0.17478141
243	0xbd8d67df	-0.069045775
244	0xbd0ba5cb	-0.03409366
245	0xbd2da16b	-0.04239027
246	0x3dfcee64	0.12350157
247	0xbc7990e5	-0.015232299
248	0x3e66cd64	0.22539288
249	0xbde7ce3f	-0.11318635
250	0x3e2d57ab	0.16927974
251	0x3d3dabb6	0.046306334
252	0xbe04b80b	-0.12960832
253	0x3e12378a	0.14278999
254	0x3d1a789b	0.037712675
255	0x3df433df	0.11923956
