NetworkSaver/conv2_weight.npy (npy, 4080 bytes, 1 tensors)

array f4 [1, 5, 10, 20]
0.13357477 0.12472803 0.11336526 -0.12481956 0.015133823 -0.12928173 0.08198106 1.15848e-05
0.08398461 -0.16153125 0.009749017 -0.13235962 0.09979135 0.14461951 -0.06612197 -0.18025279
0.027524045 -0.04840602 0.026055396 -0.023985384 -0.2520763 -0.06645645 0.028419893 0.13985705
-0.019567644 -0.022236362 -0.14801224 -0.2338583 -0.17541902 -0.0660143 0.13995573 0.08275817
0.13810976 -0.1822254 0.06841875 0.10361608 0.06684863 -0.034877513 0.01361664 -0.12378195
0.03818285 0.14422373 -0.028444542 0.083585754 -0.16334294 -0.05934776 0.069283664 0.027665908
-0.07876796 -0.057233468 -0.044167098 0.0664768 0.006953126 0.07768181 0.008766421 0.16884768
-0.13459794 0.08394844 -0.016926853 0.13263512 -0.054933973 0.028166894 -0.05413886 -0.041790377
0.080322854 -0.20519447 0.15495493 -0.07634524 -0.061513193 0.028233662 -0.07787879 -0.10331905
-0.06264691 -0.022556532 0.10566263 0.21271878 -0.06574358 -0.0077772723 0.040465493 -0.072353974
0.09089933 0.035756703 -0.032447927 0.07126629 -0.1008972 -0.0012998574 0.1522898 -0.09431758
0.0884642 0.003055896 0.03209328 0.101988986 0.017292688 0.01685094 0.14232272 0.029421486
-0.05654881 0.07422334 0.029769737 -0.09091515 -0.07473219 -0.11694389 0.12662202 0.1319564
0.03702033 -0.05638074 0.025374053 0.041774195 0.0499989 -0.0025285482 0.06902909 0.0023450656
-0.028868152 -0.0050961496 -0.016541867 -0.047710065 -0.08651855 0.1547912 -0.04552198 0.031661343
-0.16712333 -0.105141155 0.024017433 0.043277692 -0.011133731 0.01356362 0.0939387 0.12718302
-0.20952953 -0.21390213 0.046330858 0.08967138 -0.16360973 0.09561506 -0.1384154 0.13269746
0.16889372 0.17056905 -0.015885178 -0.10705332 -0.16144808 -0.06573112 0.09703651 0.13824786
0.0537367 0.13625307 0.017381858 0.03658531 0.11071259 -0.09998724 -0.22235136 -0.078593776
0.066911384 0.15072118 -0.039041046 0.03408423 0.064153925 -0.114870444 -0.008874026 -0.15542573
-0.12818725 0.001597045 0.05880764 -0.03974446 0.05469318 -0.015864376 0.05227625 -0.06679836
-0.17703238 -0.044778783 0.08921258 -0.011271241 0.10795465 -0.07585289 0.04014776 -0.07680238
-0.0052057896 -0.056714673 -0.031650692 0.080410294 -0.116713814 -0.07702735 -0.13577066 -0.052709308
0.11150249 0.02378312 0.022615358 -0.2077558 -0.0040548644 -0.047488302 -0.025671326 0.16826743
-0.028425649 0.06700758 0.07832855 -0.02850011 0.2011789 -0.010166977 -0.11603452 0.06588462
0.06982665 0.02150859 -0.062212832 0.060783386 0.041994583 -0.1941795 0.07346941 0.031698767
0.13405861 -0.03291885 -0.091609195 0.038771313 0.028244156 0.12252865 0.025530545 0.033484645
0.08175569 -0.1942447 0.06394702 -0.07410433 0.13763885 0.1231967 -0.024722701 -0.17603467
-0.050161682 0.080108814 -0.1272558 -0.045870893 -0.14844178 0.04633237 -0.038637333 -0.012468965
0.090892054 -0.021406377 0.01573067 -0.061985034 -0.0073393187 0.054312866 0.050135646 -0.025956593
0.04878377 0.04539516 0.14348938 -0.0024256646 0.05558595 0.103275806 -0.051664133 -0.11004268
-0.04571302 -0.06386057 0.061079167 -0.17574188 -0.070073344 0.060054917 0.011604412 0.11076709
00000000: d3c7 083e 6971 ff3d 0c2c e83d 66a1 ffbd
00000010: dbf3 773c 6e62 04be b0e5 a73d 565c 4237
00000020: 2000 ac3d 7368 25be 57ba 1f3c 4889 07be
00000030: 685f cc3d 2317 143e f56a 87bd 3094 38be
00000040: 1b7a e13c 6445 46bd 2072 d53c ff7c c4bc
00000050: 2510 81be 521a 88bd d6d0 e83c b036 0f3e
00000060: 534c a0bc 0829 b6bc 8590 17be 8d78 6fbe
00000070: 0ba1 33be 8132 87bd 8e50 0f3e 1e7d a93d
00000080: a56c 0d3e 4c99 3abe 211f 8c3d ab34 d43d
00000090: efe7 883d b9db 0ebd 5418 5f3c 6481 fdbd
000000a0: 9f65 1c3d 63af 133e 8704 e9bc 022f ab3d
000000b0: 5f43 27be a316 73bd 98e4 8d3d 9da3 e23c
000000c0: 1951 a1bd a46d 6abd 8fe8 34bd fd24 883d
000000d0: 0cd7 e33b a417 9f3d 09a1 0f3c 68e6 2c3e
000000e0: 0bd4 09be 29ed ab3d 2faa 8abc 80d1 073e
000000f0: 7202 61bd 42be e63c b6c0 5dbd 632c 2bbd
00000100: 4f80 a43d 801e 52be 81ac 1e3e e55a 9cbd
00000110: 42f5 7bbd 484a e73c ea7e 9fbd f098 d3bd
00000120: 064d 80bd 7ac8 b8bc a665 d83d f4d2 593e
00000130: 92a4 86bd 7dd8 febb 25bf 253d 522e 94bd
00000140: 6e29 ba3d 9f75 123d 1ee8 04bd 10f4 913d
00000150: 31a3 cebd fa5f aaba dbf1 1b3e 9329 c1bd
00000160: b82c b53d 6d45 483b 3e74 033d 9adf d03d
00000170: 65a9 8d3c fc0a 8a3c 0cbd 113e 5405 f13c
00000180: ba9f 67bd 6802 983d aadf f33c b931 babd
00000190: 310d 99bd 4780 efbd 34a9 013e 941f 073e
000001a0: a1a2 173d 7eef 66bd 3fdd cf3c 6b1b 2b3d
000001b0: a6cb 4c3d 00b6 25bb 205f 8d3d acaf 193b
000001c0: e77c ecbc 9afd a6bb cf82 87bc a16b 43bd
000001d0: a330 b1bd 9681 1e3e 4175 3abd 53af 013d
000001e0: 6122 2bbe 3f54 d7bd 35c0 c43c f343 313d
000001f0: 416a 36bc f239 5e3c ef62 c03d 443c 023e
00000200: e98e 56be 2909 5bbe 6dc5 3d3d a1a5 b73d
00000210: 4f89 27be d4d1 c33d c4bc 0dbe d8e1 073e
00000220: 7af2 2c3e a7a9 2e3e a221 82bc c53e dbbd
00000230: a552 25be 0a9e 86bd 14bb c63d d990 0d3e
00000240: 041b 5c3d ed85 0b3e 6664 8e3c 7ada 153d
00000250: 48bd e23d 1cc6 ccbd 13b0 63be c6f5 a0bd
00000260: d608 893d a756 1a3e 81e9 1fbd e89b 0b3d
00000270: 2263 833d 3241 ebbd 5d64 11bc ec27 1fbe
00000280: 8543 03be f053 d13a 48e0 703d 16cb 22bd
00000290: f505 603d 02f6 81bc 9f1f 563d 94cd 88bd
000002a0: fa47 35be f569 37bd 16b5 b63d 03ab 38bc
000002b0: 5417 dd3d c358 9bbd fa71 243d 914a 9dbd
000002c0: 5495 aabb a54d 68bd 28a4 01bd 27ae a43d
000002d0: a707 efbd 84c0 9dbd 7707 0bbe b7e5 57bd
000002e0: 6b5b e43d d1d4 c23c d843 b93c f0bd 54be
000002f0: abde 84bb 1883 42bd ac4c d2bc 4c4e 2c3e
00000300: e8dc e8bc 453b 893d b86a a03d 1079 e9bc
00000310: d701 4e3e 6493 26bc 82a3 edbd 84ee 863d
00000320: 4601 8f3d c832 b03c e2d2 7ebd 00f8 783d
00000330: 8302 2c3d fed6 46be 2177 963d 91d6 013d
00000340: a946 093e ebd5 06bd 9a9d bbbd abce 1e3d
00000350: 4a60 e73c 4df0 fa3d 6f25 d13c 3227 093d
00000360: 876f a73d 15e8 46be a8f6 823d 03c4 97bd
00000370: 33f1 0c3e 8d4e fc3d 4387 cabc 6f42 34be
00000380: 5676 4dbd 1710 a43d 584f 02be 1ee3 3bbd
00000390: 1f01 18be 03c7 3d3d 2e42 1ebd a14a 4cbc
000003a0: 9d25 ba3d 6d5c afbc 9bdd 803c 05e4 7dbd
000003b0: ab7e f0bb 2b77 5e3d 095b 4d3d eca2 d4bc
000003c0: 7ed1 473d 46f0 393d e1ee 123e e6f7 1ebb
000003d0: 18ae 633d 4482 d33d c59d 53bd 0e5e e1bd
000003e0: 933d 3bbd 55c9 82bd 262e 7a3d aef5 33be
000003f0: 9d82 8fbd 25fc 753d 6f20 3e3c dbd9 e23d
