NetworkSaver/conv4_bias.npy (npy, 400 bytes, 1 tensors)

array f4 [80]
00000000: b7f2 1abd b351 9ebc a944 2e3d 986e 213d
00000010: a53b 87bc a525 a93d 1c65 e83c 5c01 183d
00000020: b691 e7bc ed2c 5bbd 5eba 64bc caac 513d
00000030: 7fe3 773c e276 a73c 2d06 efbc b050 063e
00000040: 6a5d 77bd f4c0 d53d 793e 573e 90a5 3cbd
00000050: 323c e0bc 2715 093d d0ca 8fbc fb73 b83d
00000060: e444 693d f739 d3bc e551 d0bd 2a16 a23c
00000070: d4c6 543c d4e0 0d3d 5d39 bc3d b520 e23d
00000080: f70d 303d 3704 f53d f463 a63d fc8c 1f3e
00000090: 664c 8b3b 6f38 7dbc b3f8 183d 6843 e63b
000000a0: 3b08 88bd 0bc7 00bd d936 ce3c 079b 983d
000000b0: f8de 39be 3bbb 99bd 7adc 3dbc 41d3 a63d
000000c0: 6e8d fe3b 4806 47bd bcd8 d73d 2ae8 a73c
000000d0: cbd4 c03d 2326 053c ba9e ce3c 2b16 a7b8
000000e0: 90f7 ac3c 46df 91bc 805b 6a3c 9401 21bd
000000f0: 5681 aebc 21c6 183b d510 00bc b42a 5f3c
00000100: f973 983d 43e8 843b 98b0 573e dc40 f5bc
00000110: cd60 023d 48d1 ea3c e653 0dbc b42d e43d
00000120: 5cca 313e 9e04 2c3d 1968 28bb 3584 85bc
00000130: f0d9 28bd c107 223c 7b9b b83c 3bf6 85b8
-0.037829127 -0.019326067 0.04254595 0.03941211 -0.016507933 0.08259133 0.028368525 0.03711067
-0.028267723 -0.05350964 -0.013960449 0.051190175 0.015129923 0.02044243 -0.02917775 0.13116717
-0.06039182 0.104371935 0.21019925 -0.04605633 -0.027372453 0.033467438 -0.017552763 0.090064965
0.056950465 -0.025784476 -0.1017187 0.01978596 0.012986857 0.03463824 0.09190629 0.110413946
0.042982068 0.119636945 0.08124533 0.15581125 0.0042510508 -0.015455349 0.037346553 0.0070270784
-0.06642195 -0.031439822 0.025172638 0.07451444 -0.18151462 -0.075064145 -0.01158821 0.08145762
0.0077683246 -0.048589975 0.10539386 0.020496447 0.09415587 0.008126768 0.025222171 -7.96731e-05
0.02111414 -0.01780666 0.014304042 -0.039308146 -0.021301907 0.0023311453 -0.007816513 0.013621021
0.07443995 0.004056008 0.21063459 -0.029938154 0.031830598 0.028664246 -0.00862596 0.1114153
0.1736235 0.04199659 -0.0025696813 -0.016298393 -0.041223466 0.009889544 0.022535076 -6.387798e-05
