NetworkSaver/conv4_weight.npy (npy, 64080 bytes, 1 tensors)

array f4 [1, 5, 40, 80]
000000 ea 46 3f 3d d2 b1 f3 bc f8 48 87 bd 83 b6 54 3e
       0.04669849 -0.029747877 -0.066057146 0.20772748
000010 ed b9 c2 3c 3f 6e 3e bd 33 19 bf 3d ce d1 89 3d
       0.023770297 -0.046491858 0.09330978 0.0672947
000020 ea 7c 2c 3d eb 85 51 bd 31 00 af 3d f0 ca 38 3e
       0.042111315 -0.051153105 0.085449584 0.18046165
000030 9e 9c be 3c be bf cd bd 91 83 fc 3d 80 2e ca 3d
       0.02326804 -0.100463375 0.12329782 0.098721504
000040 47 72 43 bd 1e 9c 88 bd 13 80 11 be 6d 37 1f be
       -0.047716405 -0.06670402 -0.14209013 -0.15548487
000050 b4 8d dc bb 67 82 fe 3d b1 8b d2 bc a1 84 12 3e
       -0.0067307595 0.12427216 -0.025701376 0.14308406
000060 c7 4a 02 3e a8 4a d5 3d b3 e3 b2 3d 11 80 9c bc
       0.12723838 0.1041463 0.087348364 -0.019104036
000070 9c 42 ed bc 7a cc 93 3d fb f2 75 bc 32 b0 4b 3d
       -0.028962426 0.07216735 -0.015011544 0.04972858
000080 ea 1e 8f 3c 7f 64 e5 3d d1 3d b1 bc 6d dd 28 3e
       0.017470796 0.11200809 -0.021635922 0.16490717
000090 32 da d7 bc 9d c2 23 3c 8a 96 6c bd 54 47 1c bc
       -0.02634916 0.00999513 -0.057760753 -0.00953849
0000a0 c5 92 37 3e 3a c9 f0 bd 35 36 bf bd 89 c1 7a 3d
       0.17927082 -0.11757131 -0.09336511 0.061219726
0000b0 1d 27 05 be 2f c5 61 3d 0b 4f 9a 3c 45 d5 b8 3b
       -0.13003202 0.05511969 0.018836519 0.005640658
0000c0 1e ab c0 bd f9 77 d9 3d f0 3c 87 bd f5 cf 77 3c
       -0.09407638 0.10618586 -0.0660342 0.015125264
0000d0 5a d7 ca bd 79 55 47 3d 39 53 c0 bc 1a 71 da 3c
       -0.09904356 0.048665497 -0.023477184 0.02666526
0000e0 0b 84 37 3d 05 50 af bd 13 0f 2a be 0b c4 ff bd
       0.04480366 -0.085601844 -0.16607313 -0.12488564
0000f0 b4 e8 94 3d 7a fd d0 bd f9 a2 41 be a6 53 63 bd
       0.07270947 -0.10204597 -0.18909825 -0.055499695
000100 8c 52 4a bd 65 7f 96 3d 39 88 e9 bd c5 77 a8 bd
       -0.04939513 0.07348517 -0.114029355 -0.08225969
000110 62 26 09 be 0d 47 c2 bc 65 17 0e bc 5d 09 f7 3d
       -0.13393548 -0.02371552 -0.00867257 0.12062333
000120 16 4e db bd 92 17 ae 3d ce 43 95 bd 12 52 b9 bb
       -0.10708253 0.085005894 -0.07288323 -0.0056555355
000130 1f 96 34 3b 81 8b f6 3c d0 c5 c3 3d 4e ec 13 be
       0.00275553 0.030095818 0.09559214 -0.14445612
000140 89 8c 9a 3d 76 4c 12 bc e1 e7 8f 3d 1a 39 03 be
       0.07546336 -0.0089293625 0.07026649 -0.12814751
000150 3a dd 7e 3d 82 00 93 3d cb 84 3b 3d 34 f9 58 bd
       0.062222697 0.07177831 0.045780938 -0.052972034
000160 e3 11 af 3d 19 e1 83 bc df 4d a0 bd b8 60 90 bd
       0.085483335 -0.016098546 -0.07827353 -0.07049698
000170 b1 33 04 be 68 60 50 3d de b4 f7 bd c5 e4 f2 bd
       -0.12910344 0.05087319 -0.120950446 -0.118600406
000180 a2 b3 73 3d df b8 28 3d 50 0f 9a bc c7 35 23 3d
       0.059497483 0.04119193 -0.01880613 0.039846208
000190 ca 03 b6 bc b7 28 84 3d 16 83 50 bd d5 9a aa 3b
       -0.022218604 0.06453078 -0.050906263 0.0052064457
0001a0 eb 81 71 3d 9c cc e9 3d ef 91 12 be 81 3b e0 3d
       0.05896179 0.11415979 -0.14313482 0.109488495
0001b0 b5 fb 26 bd 73 4b 81 bc 71 34 94 bd 32 a1 79 bd
       -0.04076739 -0.015783047 -0.07236565 -0.060944743
0001c0 dd 87 51 3d 14 5f c4 bd bb 8c 56 3e 20 43 f3 3c
       0.05115496 -0.09588447 0.20952122 0.029695094
0001d0 ec 93 3a be e6 f2 06 bd 8b 61 c3 3c 64 46 7d 3d
       -0.1822049 -0.03294649 0.023850223 0.061834708
0001e0 ad f1 d8 3a 38 59 8f 3d d8 51 0b be cf d4 89 3d
       0.0016551517 0.06999439 -0.1360544 0.06730043
0001f0 23 12 cc 3d 93 00 75 bd ff 9c 46 3d ad a1 ab 3d
       0.09964397 -0.059815 0.048489567 0.083804466
000200 2e e2 fe 3d b8 1e 07 3c af 50 74 3d e2 4f 9b 3d
       0.12445484 0.00824707 0.05964726 0.07583596
000210 72 df ac bc d3 86 ea 3d fe 2d 1c 3e d4 12 4b be
       -0.02110264 0.11451497 0.1525192 -0.19831401
000220 e3 5b 3a bc 16 09 09 3e d1 d5 d5 bd af 4c 6a 3d
       -0.011374447 0.13382372 -0.10441173 0.057202037
000230 74 f0 b3 bd 0c 19 83 3d 77 18 ce 3b 6b 79 0c be
       -0.08786097 0.06401262 0.0062895375 -0.13718192
000240 27 bf b3 bd 47 12 3c bd 12 ce 25 3e f4 81 85 3d
       -0.08776694 -0.045915868 0.16191891 0.06518927
000250 16 ce 54 bd f3 29 ae 3d 97 66 30 3d 54 d0 4e 3c
       -0.05195435 0.08504095 0.043066587 0.0126229115
000260 d7 53 e3 3c 85 52 91 3d 50 48 a9 3d 61 30 ba bd
       0.027749939 0.070958175 0.08265746 -0.09091259
000270 2d 1b 2a 3d 3a 74 10 be bc 2c 17 3e db f5 94 bd
       0.041529823 -0.14106837 0.14763159 -0.07273456
000280 54 2b 1a be ed b6 5c bd 4f 91 9f bd b1 fa 6a 3d
       -0.15055591 -0.05388539 -0.07791387 0.057367984
000290 14 f6 f1 3c ac 69 e7 bd 51 f9 15 3e 9f b6 aa bd
       0.029536285 -0.11299452 0.14645888 -0.083356135
0002a0 b6 19 fa bb 80 04 d3 3d e4 80 7a bb 35 fd df 3d
       -0.0076324595 0.10303593 -0.0038223797 0.10936967
0002b0 5f c7 1f 3e ef af af 3c a6 8a 0b be 92 47 a1 3c
       0.15603398 0.021446196 -0.13627109 0.019687448
0002c0 e9 4b 09 3e b7 0c 26 3d 93 09 85 3c 9e 34 fb 3d
       0.13407864 0.04053947 0.016239917 0.12265895
0002d0 ee c1 92 bb 01 e8 c1 bd 4a 58 2c 3d 7e 8e 18 bc
       -0.0044786846 -0.09468079 0.042076387 -0.009311317
0002e0 be e4 98 bc fc 16 d9 bc a8 3c d3 bc c7 29 9e bd
       -0.01866376 -0.026500218 -0.02578576 -0.07722812
0002f0 31 a1 ed bc bc 54 1f 3d dc fa 3d be 06 30 ae bd
       -0.029007526 0.03889917 -0.18552727 -0.085052535
000300 ff 7b e7 3d dd cd a2 3d 4d 7e cc bc fd cf b1 bc
       0.11302947 0.079494216 -0.024962569 -0.021705622
000310 24 ae cf 3c 7d 33 e0 bd a4 66 dc bd 44 27 0b 3e
       0.025351591 -0.109473206 -0.10761765 0.13589197
000320 27 3b 1b 3d 01 80 a0 3c 50 13 86 bd 18 27 51 3d
       0.03789821 0.019592287 -0.06546652 0.051062673
000330 e5 61 dd 3d b6 46 af bd 3b 38 ec bd 6c f4 90 3d
       0.108096875 -0.08558409 -0.115341626 0.0707787
000340 ae 33 d3 3d 63 dd 46 3c fb 49 0e bc ed 8f af 3d
       0.103125915 0.012137744 -0.0086846305 0.085723735
000350 fd bc c5 bd 0d a0 dc bd 5b f5 26 3e 11 03 02 bc
       -0.09655187 -0.10772715 0.16304533 -0.007935301
000360 13 3a 26 3e ca 39 e9 bd 2a 56 dd bd c5 28 20 be
       0.16233091 -0.113879755 -0.1080745 -0.15640552
000370 aa f4 05 bd c3 c9 35 be 83 ed 8f bd 99 a5 43 3e
       -0.032704033 -0.17752747 -0.07027724 0.19106139
000380 b5 ff 80 3c 49 1f d2 3d f2 ae 5e bd 0c 60 09 3c
       0.01574693 0.102598734 -0.05436606 0.008384716
000390 72 6b 16 be f0 50 29 be bf 9a ed bd a9 9e e5 bd
       -0.14689425 -0.16534781 -0.11601781 -0.11211903
0003a0 7c 0d ec bd 5e 08 fe bb 0a a3 48 bd c5 88 c1 3d
       -0.115260094 -0.0077524623 -0.04898361 0.09449915
0003b0 c6 a7 c5 3d d8 e0 40 3e de 63 90 3d fc 49 d3 3d
       0.09651141 0.18835771 0.07050298 0.10316846
0003c0 43 6d ae 3d 3d 36 f8 bd 8a 52 ff bd 32 08 9a 3c
       0.08516934 -0.1211972 -0.12466915 0.018802736
0003d0 26 27 47 3d 25 98 72 bd 3f b5 8f bd d4 18 9b 3d
       0.04862132 -0.059227128 -0.07016992 0.07573095
0003e0 a7 20 40 bd 7d 0d 8f bd 1d 48 8d bc da 72 7c bd
       -0.04690614 -0.069849946 -0.0172463 -0.06163297
0003f0 4d 61 ad 3c 2a 7f af bc 67 a1 a0 bd a0 54 83 bd
       0.02116456 -0.021422941 -0.07843285 -0.06412625
