NetworkSaver/conv3_weight.npy (npy, 16080 bytes, 1 tensors)

array f4 [1, 5, 20, 40]
0	0x3db9f524	0.0907996
1	0x3d0a13cb	0.033710282
2	0x3e24b044	0.16082865
3	0xbe041c9d	-0.1290154
4	0x3d0cec4b	0.034405034
5	0xbdf3e8e0	-0.11909652
6	0xbd4ed63d	-0.050497282
7	0xbd44e70b	-0.048071902
8	0xbdc318c2	-0.095262066
9	0x3e0d1285	0.13776596
10	0xbde0d2c8	-0.10977703
11	0xbcc7a791	-0.024371894
12	0xbd63eca4	-0.0556456
13	0x3e121fae	0.14269897
14	0xbd9c6c73	-0.076378725
15	0x3e089a6f	0.13340162
16	0xbdd0fae1	-0.10204101
17	0x3ca93148	0.020653382
18	0xbe059773	-0.13046055
19	0x3da9c5a0	0.08289647
20	0x3e0c46b0	0.1369884
21	0x3dfa3ea5	0.1221898
22	0xbe124ef8	-0.14287937
23	0x3dab0d4b	0.08352145
24	0x3c0590a0	0.008152157
25	0x3c96acf4	0.018393017
26	0xbd596341	-0.05307317
27	0xbd91937c	-0.071082085
28	0xbbab380d	-0.0052251876
29	0xbdb8a82c	-0.09016451
30	0x3dae1d61	0.08501697
31	0x3bcd23f1	0.006260388
32	0x3b8837d7	0.0041570473
33	0xbd920e59	-0.07131643
34	0x3de18e83	0.1101351
35	0x3cd66427	0.026170803
36	0x3d1fbdf9	0.03899953
37	0x3d49c2a9	0.049257908
38	0xbd5bcffe	-0.053665154
39	0xbd41ce40	-0.047315836
40	0x3b955629	0.00455739
41	0xbe06e9d8	-0.13175142
42	0xbcf22566	-0.029558849
43	0x3e246559	0.16054286
44	0xbdcea970	-0.100909114
45	0xbd6773da	-0.05650697
46	0xbd78a525	-0.06070437
47	0x3d93c840	0.07215929
48	0x3ddee32b	0.108831726
49	0x3d44ebbb	0.048076373
50	0x3d832db4	0.064052016
51	0xbd754a60	-0.059885383
52	0xbe141785	-0.14462097
53	0x3cfeb4b6	0.031092029
54	0xbca20bc2	-0.019780997
55	0xbdd65999	-0.10466308
56	0x3d1edb74	0.038783506
57	0x3e59a78e	0.21255323
58	0x3e009833	0.1255806
59	0x3d370d18	0.04469022
60	0x3e111e5b	0.14171736
61	0xbd5cedfc	-0.053937897
62	0x3e34467d	0.17605014
63	0xbc57ccac	-0.013171356
64	0xbdf37163	-0.11886861
65	0xbe86ebac	-0.26351678
66	0x3d87b2f8	0.066259325
67	0xbd9250f5	-0.071443476
68	0x3d17e102	0.03707982
69	0x3dfbd2c2	0.12296058
70	0x3e198796	0.14993128
71	0x3cfa3d84	0.030546911
72	0x3d5cd23b	0.05391143
73	0xbdefa211	-0.117008336
74	0xbcec3c3b	-0.028837314
75	0x3dea8d64	0.11452749
76	0x3d4e02ef	0.050295766
77	0xbe3e19d5	-0.18564542
78	0xbd6b1b2d	-0.057398964
79	0x3bab5b72	0.005229407
80	0xbe1f942f	-0.15583871
81	0xbdfa6e5f	-0.12228083
82	0xbd87dda6	-0.06634073
83	0x3cb1107b	0.021614304
84	0xbdd43801	-0.103622444
85	0xbd4513b2	-0.048114486
86	0xbe3b4e4d	-0.18291588
87	0x3c96ee5b	0.018424204
88	0x3e17e8dc	0.14834923
89	0xbe15900d	-0.14605732
90	0x3d3e5ffb	0.046478253
91	0xbe0b12e4	-0.13581425
92	0x3da654d7	0.08121651
93	0xbd342673	-0.04398198
94	0xbd0b7f51	-0.034056965
95	0xbde1f2a1	-0.11032606
96	0x3c6521b6	0.013985088
97	0xbe05193b	-0.12997906
98	0xbd873602	-0.06602098
99	0x3d678ac7	0.056528833
100	0xbd1dccda	-0.03852544
101	0x3e2bcb6d	0.1677682
102	0x3d853730	0.06504667
103	0xbd02b21b	-0.031908136
104	0x3ddadc12	0.10686506
105	0x3d3f1b2f	0.046656784
106	0x3df10f4e	0.11770497
107	0xbdbd0bbf	-0.09230756
108	0x3d96cad3	0.073629044
109	0xbd051cf1	-0.032498304
110	0xbdf21d51	-0.11821998
111	0xbd82f2bb	-0.063939534
112	0x3ce7b7db	0.028285911
113	0xbce15b54	-0.027509369
114	0xbe055967	-0.13022386
115	0x3d9a311b	0.075288974
116	0xbe17a3be	-0.14808556
117	0x3dcef37e	0.10105036
118	0x3ddac3c3	0.1068187
119	0xbe28efc4	-0.16497713
120	0xbe355387	-0.17707644
121	0x3d09b422	0.033619054
122	0x3e3e913c	0.1861009
123	0xbca9154a	-0.020640034
124	0x3db63cbb	0.08898302
125	0xbd1ab245	-0.037767667
126	0x3e7b4fe8	0.245422
127	0xbe2d3206	-0.16913614
128	0xbd26d439	-0.040729735
129	0xbe28ef25	-0.16497476
130	0x3d9e410d	0.07727251
131	0x3d61e673	0.055151414
132	0xbca2b64c	-0.019862317
133	0x3cf950ad	0.030433977
134	0xbaef35f6	-0.0018250335
135	0xbdf8c67b	-0.12147232
136	0x3b908062	0.0044098357
137	0x3d2909f6	0.041269265
138	0xbd702d40	-0.058636904
139	0xbe11c011	-0.14233424
140	0x3bd6944d	0.0065484405
141	0x3bcd4986	0.006264868
142	0xbdf8348a	-0.12119396
143	0x3ddbd076	0.1073312
144	0x3d193afa	0.03740976
145	0x3e1e6aa2	0.15470365
146	0x3cf3fe9b	0.029784491
147	0x3c06cc22	0.00822738
148	0x3da8319b	0.082125865
149	0x3d26387e	0.04058122
150	0xbe4659c8	-0.19370186
151	0xbdab2f5e	-0.08358644
152	0xbd43c35a	-0.047793724
153	0x3c892819	0.016742753
154	0xbd8b5af7	-0.068044595
155	0x3d720947	0.05909088
156	0x3d5a8aaf	0.053354915
157	0x3d418fe1	0.047256354
158	0x3ccf9a17	0.02534203
159	0x3d66792a	0.056267895
160	0xbdae917e	-0.08523844
161	0xbd238827	-0.039924767
162	0x3d0a2680	0.033728123
163	0x3dbeb07c	0.093110055
164	0x3dcbfbda	0.09960146
165	0x3d9e602b	0.07733186
166	0xbae85183	-0.0017724488
167	0x3a55f1bf	0.0008161328
168	0xbe216dab	-0.15764491
169	0x3d97e749	0.07417161
170	0xbddd4662	-0.1080444
171	0xbdaf83e3	-0.08570077
172	0xbde1c83f	-0.11024522
173	0x3e5a526f	0.21320508
174	0xbde4d7a1	-0.111739404
175	0xbcdbf67f	-0.026850937
176	0x3cbeaa06	0.023274433
177	0xbd220b6c	-0.039561674
178	0x3dbf5257	0.09341877
179	0x3d7052ac	0.058672592
180	0x3d7dab0a	0.061930694
181	0x3d084134	0.033265308
182	0x3df2697f	0.11836528
183	0xbd1b1fb0	-0.037872016
184	0x3c676ebf	0.014125525
185	0x3c9c7288	0.019097582
186	0x3d58b1be	0.052903883
187	0xbdae8682	-0.08521749
188	0xbd6eecc2	-0.05833126
189	0xbd1e6b99	-0.038676832
190	0x3ced9001	0.02899933
191	0xbc6a11c6	-0.014286464
192	0x3c022e44	0.007945601
193	0xbc18b9ea	-0.009321669
194	0x3e0a0220	0.13477373
195	0xbda5be21	-0.08092905
196	0x3dd74a18	0.10512179
197	0xbc61edd7	-0.013789616
198	0x3e759498	0.23982465
199	0xbe0adfd5	-0.13561948
200	0xbe1d05cd	-0.15334244
201	0x3dae62bc	0.08514926
202	0x3d57b250	0.052660286
203	0x3bf3a397	0.007435273
204	0xbc98ba5d	-0.018643552
205	0x3cd8cdc3	0.026465302
206	0x3d0df2a7	0.03465524
207	0x3de63ed9	0.11242456
208	0xbd918fba	-0.07107492
209	0xbe0ca670	-0.13735366
210	0xbcfbbb4f	-0.030728964
211	0xbd2406ad	-0.04004543
212	0xbd9e37fa	-0.077255204
213	0x3d1eae3c	0.03874038
214	0xbe1719fa	-0.14756003
215	0x3d95f10c	0.07321367
216	0xbdb06dce	-0.086146936
217	0xbc857f0b	-0.01629593
218	0x3dc53c68	0.09630662
219	0x3c22a544	0.009927098
220	0xbd019b70	-0.031642377
221	0x3e356c71	0.17717148
222	0x3c0f5207	0.008747584
223	0xbd390f0b	-0.04518036
224	0x3e25711c	0.16156429
225	0xbd4fc2db	-0.050722938
226	0xbc925ba9	-0.017865973
227	0x3bdeb9e9	0.0067970646
228	0x3bf95011	0.0076084216
229	0x3e30afd4	0.17254573
230	0xbe2d6763	-0.1693397
231	0x3df9952f	0.12186658
232	0x3e14824a	0.14502826
233	0x3d6fe7d2	0.05857069
234	0x3e00884b	0.12551992
235	0x3c85186d	0.016246999
236	0xbd92f4e6	-0.07175617
237	0xbd965ac5	-0.07341532
238	0x3ce548ff	0.027988909
239	0xbdedd166	-0.11612205
240	0xbd86e2f4	-0.065862566
241	0x3add065a	0.0016862855
242	0x3c8c9d5e	0.017164882
243	0x3d1af8f2	0.03783507
244	0x3dd20419	0.10254688
245	0xbc4a511d	-0.0123484405
246	0x3cb7a2b2	0.022416446
247	0xbe14aa52	-0.14518097
248	0xbe02e40a	-0.12782302
249	0xbd20581a	-0.03914652
250	0xbdd90bc4	-0.10597947
251	0x3cb85517	0.022501511
252	0xbdc8dad0	-0.0980736
253	0x3e37451b	0.17897455
254	0xbc498661	-0.012300105
255	0x3c896c90	0.0167754
