NetworkSaver/conv1_weight.npy (npy, 1080 bytes, 1 tensors)

array f4 [1, 5, 5, 10]
000000 f6 a7 ab bc cd 9b 76 bc 57 12 95 3d d2 24 d6 3d
       -0.020954113 -0.015051794 0.07278889 0.10456242
000010 67 e2 30 3e 92 99 32 bd 0c 40 9f 3d a3 d7 6b 3d
       0.17273866 -0.043603487 0.07775888 0.057578694
000020 81 90 28 be ca 72 ac bd 24 41 72 bd 87 f7 a1 3d
       -0.16461374 -0.08420332 -0.059144154 0.0790854
000030 9d 9f 0b be 05 89 f7 bc 28 45 9d 3c 7c 65 b5 bc
       -0.13635106 -0.030216703 0.019198015 -0.022143118
000040 63 b6 25 bc 53 df b4 bb ab 1f 2c bd 64 b3 0d be
       -0.010114285 -0.0055197864 -0.04202239 -0.13837963
000050 cf e3 4c 3d 71 ec 43 bd e6 95 69 bd 76 e4 02 bc
       0.050021943 -0.04783291 -0.05702772 -0.00798904
000060 da 98 51 bd 32 9b 86 3d 65 51 c5 3d af e6 45 3e
       -0.05117116 0.0657257 0.096346654 0.1932628
000070 af fd 0c 3e bb 82 71 3d a7 12 24 3e 81 81 71 bc
       0.13768648 0.058962565 0.1602274 -0.014740349
000080 43 7e 40 bc 9c 0e 15 3e b8 8f 53 bd 8b 9d c4 bc
       -0.011748853 0.14556354 -0.051650733 -0.024000904
000090 d4 c0 41 3e f2 c7 25 bc e9 17 b2 3d 9c e8 88 3d
       0.18921214 -0.010118471 0.08695967 0.06684992
0000a0 78 e2 9d b8 5c ca 3d 3d 4a 6f fd 3b b7 cb 23 bd
       -7.5285265e-05 0.046335563 0.007734214 -0.0399892
0000b0 af 09 82 3d c4 53 87 3c 75 8f 8b 3d 51 50 a4 bb
       0.06349503 0.016519435 0.06814472 -0.0050144573
0000c0 54 80 70 bd 8f 90 90 bc ce e2 38 3c cc 18 4e 3e
       -0.058716133 -0.017647056 0.011284543 0.20126647
0000d0 8f bf 2c 3e 21 37 4b 3d 8b c6 de 3b 71 a1 90 3d
       0.16869949 0.049613122 0.0067985705 0.070620425
0000e0 c1 1f e8 3d 28 b5 3b be 45 23 07 3b 2e ba 54 3d
       0.113341816 -0.18330824 0.0020620388 0.051935367
0000f0 1d 6e 2d 3d 8e 13 d4 bd 72 51 f2 3d 50 f4 d9 bb
       0.04234134 -0.10355292 0.11831941 -0.006651439
000100 cd 99 43 3d 22 b6 ff bd 9c d6 18 be a2 4e aa bd
       0.047754098 -0.12485911 -0.14925617 -0.08315779
000110 0a 8b ac bd 09 5a 45 be 94 ad 0c 3d d5 cf 0e bd
       -0.08424957 -0.19272627 0.034345224 -0.034866173
000120 50 36 87 3d 30 2c 98 bd 51 03 85 bd 58 6a a2 bc
       0.06602156 -0.07430303 -0.06494773 -0.0198261
000130 3e 93 1d ba 6e 4b 1e be f2 10 97 3c 1b 05 8d 3d
       -0.00060110155 -0.15458462 0.018440697 0.068857394
000140 93 f2 39 3d 17 c3 70 bd b2 85 ec 3d ee ae 3d 3e
       0.045397352 -0.058779802 0.11548938 0.18523762
000150 fa 3d b0 3d 3b 5f 3b bd 6a 78 ab 3d 2a 7d 5e 3d
       0.08605571 -0.045745116 0.083725765 0.054318585
000160 b1 bc 24 bd 79 fb 30 bd 9b 61 2d bd 08 d4 b6 bc
       -0.040219013 -0.043208573 -0.042329412 -0.022317901
000170 ce 6b ef 3d 9f 59 be 3c 81 f4 8d 3d 15 9d 5d 3c
       0.11690484 0.023236094 0.06931401 0.013526221
000180 15 93 0d 3e 48 6b d5 bc aa b5 10 bc e9 04 8e 3d
       0.13825639 -0.026052132 -0.008832375 0.0693453
000190 ec 8f ca 3d de 73 a2 3d 41 58 61 bd ff 0c a1 3d
       0.09890732 0.07932256 -0.055015806 0.07863807
0001a0 b0 e8 2d bd d9 29 9d bd 9e a2 97 3c 05 e6 fc bc
       -0.042458236 -0.076739974 0.01851016 -0.0308714
0001b0 f9 1b 01 bc 47 e8 ef 3c 0d 96 20 be 4d 7d 1b be
       -0.007880204 0.029285563 -0.1568224 -0.15184517
0001c0 c5 68 e8 bb 87 14 ef bd 9f 52 52 be 3d 1f 87 3e
       -0.0070925676 -0.11673837 -0.2053933 0.2639102
0001d0 1c cc cb 3c 88 d5 8f 3a a4 6d c0 3d 88 56 83 3d
       0.0248776 0.0010973671 0.09395912 0.06412989
0001e0 31 46 36 3c 9a 35 61 bd dd f6 d9 bb 4f 6f 32 3e
       0.011125133 -0.05498276 -0.006651743 0.17425273
0001f0 02 ee 1d 3e a4 5c 99 3d 29 85 3c bd 65 e5 83 3d
       0.15422824 0.07488373 -0.04602543 0.06440238
000200 80 30 60 bd 84 1f 7f 3d 49 78 57 3d 59 59 b1 3d
       -0.054733753 0.062285915 0.052604947 0.0865962
000210 26 5f 15 3d 26 f7 7a bc 30 62 a8 3d 00 16 a0 bc
       0.036467694 -0.015317714 0.08221853 -0.01954174
000220 ed 5f d4 3d 3a 8e 82 3c 73 a8 a2 bd 78 6b 90 3d
       0.10369859 0.01593696 -0.079422854 0.07051748
000230 4f 54 17 be f4 a6 03 3e 98 f6 ec bc 7e e5 b9 3d
       -0.14778255 0.12856656 -0.028926179 0.09076975
000240 3b 03 40 3d 76 cb 94 bd f5 3d ea 3d d7 e6 b6 bd
       0.04687808 -0.072653696 0.114375986 -0.08930748
000250 76 b8 e1 3d 3d 34 ce 3c 49 82 e3 bd ab 22 1a be
       0.11021511 0.025171394 -0.11108834 -0.15052287
000260 c8 94 36 3e 8e 99 cd bd 73 73 1a be 10 a2 86 bd
       0.17830193 -0.10039054 -0.15083103 -0.0657388
000270 a3 f4 29 be 3c 54 f9 3c 7e 3e 42 be 6e 7e 08 bd
       -0.16597228 0.030435674 -0.18969151 -0.033323698
000280 df 38 96 3e 3c 68 59 3e 53 97 11 3d 47 f6 20 3a
       0.29340264 0.21231169 0.035544705 0.0006140214
000290 f7 bc e9 3e 78 29 69 bd 9e 12 5f 3c 77 0d 3b 3e
       0.4565198 -0.056924313 0.0136152785 0.18266855
0002a0 49 ad 5b 3e 84 2f 0c 3e 62 5c 22 3d 61 11 3d 3c
       0.21452822 0.13690001 0.039638884 0.011539788
0002b0 df cf 92 3c 82 1f b5 bc 8c 5b cc 3c 42 f4 43 be
       0.017921386 -0.02210975 0.024945997 -0.19136146
0002c0 50 8e ae bd 0b 77 d0 bc 07 e1 4e 3d 86 c0 67 3e
       -0.08523238 -0.02544739 0.05050757 0.22632036
0002d0 ed 2e 25 bd eb ef bb ba 82 1f 0b be 5e 6a 66 be
       -0.040327955 -0.0014338469 -0.13586238 -0.22501513
0002e0 fc b3 89 be fe d4 00 be da c3 21 bd 7b 28 0a be
       -0.2689513 -0.1258125 -0.03949342 -0.13492005
0002f0 c3 b6 c7 bd 10 cc 37 bc f3 0b c0 3d 8c e1 21 3d
       -0.09751656 -0.011218086 0.09377279 0.03952174
000300 39 1b 50 3b e9 ca a9 bd c6 72 07 3d f5 fd f4 bd
       0.0031754507 -0.08290655 0.03306844 -0.11962501
000310 ce 6c 6d 3d f3 ee 2a 3d ec fa 45 3d 1a 38 a3 3d
       0.057965092 0.041731786 0.048335 0.07969685
000320 91 67 ab bd 1d 42 c2 bd 1c 81 83 3c 80 0e 2c 3d
       -0.08369363 -0.09485266 0.016052775 0.042006016
000330 7f 65 d3 bd 47 4f cf 3d 45 3e 0b 3c 1a 2c c6 3b
       -0.10322093 0.10122543 0.008498733 0.006047738
000340 ac ae fb 3d 5b 07 3f be d5 13 e0 bc dc 9c 30 3e
       0.122891754 -0.1865515 -0.027353207 0.17247337
000350 3e bf b0 bd 0a 00 a0 bd d4 bf b8 bb 21 7e c2 bd
       -0.086302266 -0.078125075 -0.005638102 -0.094967134
000360 22 ba bd bd 6f 7d af bc 96 8b 37 be 77 92 f4 bd
       -0.09264018 -0.021422116 -0.17924342 -0.119419985
000370 f8 2b da 3d 8f 87 e6 3c ab 64 bb bd ec 4f 20 be
       0.106529176 0.028140811 -0.0915006 -0.15655488
000380 fa 41 ec bc 05 87 fd bd da 2e 4a be 56 6f 0e 3e
       -0.028840054 -0.123792686 -0.19744435 0.13909659
000390 b7 34 ef bd 64 3c f6 bd 7f 34 05 3e e9 bf e3 3d
       -0.116799764 -0.12023237 0.13008307 0.11120588
0003a0 bd 02 7d 3d e6 7b df 3d 55 26 06 3e d7 e1 9a 3d
       0.06177019 0.109123036 0.1310056 0.07562607
0003b0 ec ae 07 bd a1 5c 39 3d b0 6d 06 3e 47 99 e5 bc
       -0.033125803 0.045254353 0.1312778 -0.02802719
0003c0 54 a1 72 3c 9a 17 aa 3d c8 0c aa 3d fa 8c c1 bd
       0.014808971 0.08305283 0.08303219 -0.09450717
0003d0 58 71 30 bd 97 a0 d0 3d 6a 8d 84 bc b9 cc 1e be
       -0.043076843 0.1018688 -0.016180713 -0.15507783
0003e0 4a ee 93 3d 40 e4 33 be
       0.072231844 -0.17567539
