NetworkSaver/conv4_weight.npy (npy, 64080 bytes, 1 tensors)

array f4 [1, 5, 40, 80]
00000000: 7f16 813d bf61 86bd 594a 99bd a563 cb3d
00000010: e4a1 243e 5649 19be 8c46 073c b155 9cbd
00000020: d015 eabd bbcf 803d 935a 8ebd 7215 533c
00000030: 6865 7abd 21d1 143e 4126 acbc 0b54 12bd
00000040: 9ac8 98bd c809 19be bcaf cabd 9c8e cf3d
00000050: ef01 87be 20a6 e8bc 930d 20be e028 033d
00000060: 7184 5d3e 9a80 2b3e d45c 8b3c 2795 67be
00000070: f309 063e 7965 1c3d e356 07be 27b2 7dbd
00000080: 1d57 cd3d 7bf4 103e bbd5 273c f715 16bc
00000090: bfe8 693d 4ce6 4abd c4e6 84bd b80a bd3d
000000a0: 7945 0ebe 51fe c73d dd9c 163d d736 21be
000000b0: 2e67 3b3d 3985 b63d d756 a33d f819 7fbd
000000c0: 5462 ec3d 9550 88bd ed79 78bd 02bc 0ebd
000000d0: ef57 1d3d 24d1 73bb 97f7 073d 7d08 00be
000000e0: e615 fa3d dade c33d 1ec9 afbd 4bdc 8ebd
000000f0: d2fc 04bd 2faa edbc fa42 6fbd 4930 abbb
00000100: 1da6 65bd 530d 743d e97b 4fbe 3282 1c3e
00000110: 7656 d53c e77d c43d 0e56 263d 8e5b 423d
00000120: 2be4 ffbd df42 db3a 9485 493d 9c21 22bd
00000130: f0d0 00be cb97 dfbd 7598 56ba ded3 683b
00000140: 7cd0 e33d 9aed b4bd 4869 4abc 1cb3 cabd
00000150: 532d e0bd aaa7 11bc f2b9 0cbd 9f94 4ebd
00000160: 3c8e 063e e0f2 12be bfed 043d 6a31 94bc
00000170: 3ab3 863d b0be 81bd 6d6b 0cbd d0bc 59bc
00000180: 2ffd 0fbd 4fd6 a7bd 40f3 6cbc 0d5b e53d
00000190: be05 923d 6dcc 193e 129d ea3c 4b44 06be
000001a0: f59f 153e 26e4 37be 4cea a4bb 778f f63d
000001b0: d535 2dbc b347 8b3c 379c 973d dcf6 883d
000001c0: b806 8cbd 9938 2cbc d245 f43d 00be aabc
000001d0: dd53 86bd ebca 07be af04 243e 012b 6d3d
000001e0: 48e2 473d 872c 38bd 340e 5a3d b5af 953d
000001f0: c5f7 eabd c257 373e af9c a1bd 98d2 1fbd
00000200: a6c4 a23d 9cb9 a43d c995 503d aeae 163b
00000210: 650c 1939 4eeb 243c 1943 77bd d4b0 25bd
00000220: 2f01 093d 2322 1fbd eff0 153e aaca bc3d
00000230: 044b df3d 68e1 4e3d 0573 8fbd f99d 22be
00000240: b4ee 193e efc4 f63b f6af 92bb 9a4c 24be
00000250: a3eb 823d e1c2 c53d 71b7 f73d a595 8c3d
00000260: b609 1cbe 7b57 47bd 4715 bbbd 4a06 8f3d
00000270: 3e0e a9bd 5814 033d 9259 863d 8145 043d
00000280: d34f 643d 16d4 ae3d a1de 813c ff3f edbb
00000290: b5e3 9cbd b96c 033e d404 9b3d e974 643d
000002a0: 2f04 eb3d c179 e23c 5449 243e ef77 e93c
000002b0: 53a2 bbbc d245 223c 7149 27bd 4fd8 7dbc
000002c0: 1c5f 4dbd 3316 6abd e624 01be cb2e f83d
000002d0: c3e5 083d 0bd1 be3c fe5d 303e f6cf 403e
000002e0: 47ec c8bd 066f 98bd 039d 80bc fdd2 c0bd
000002f0: 1133 ffbd fd96 a1bd 480e 85bd 2e9b 87bd
00000300: 4369 92bc 02a3 0a3e 19d6 59be c534 57bd
00000310: e53d 3ebe 2824 f23d 3614 7f3b 4d21 09be
00000320: dc65 21bc 193c b43c 9524 533e b6c6 94bc
00000330: 3b42 a43c 249c c7bd c32e 0b3d a870 323e
00000340: 6a4a 34bd bc69 9c3c 9fd3 2b3d 9937 863d
00000350: d27b a83c 3862 1cbc 05d0 20bc 5d22 c13d
00000360: dec6 213d b3fd aa3a 0faf 033d 1d75 483d
00000370: 266b 11bc 8144 3b3d 7aa9 263e c490 b8bd
00000380: dfe3 dfbd 5c95 1e3e 704a 383e a19a 263c
00000390: 7d88 c3bd 9a6f 41be 793f d4bc 2aca c9bd
000003a0: a9b0 d0bd 4ef2 f73d e055 28bb 4d70 e13c
000003b0: 598a bbbd 8699 d93c 4bc6 e63b 4d98 8cbd
000003c0: 46a8 103d a88f 37be baba 80bc a762 1b3d
000003d0: 3985 cebd 6335 0e3c 5fcd 233d 6379 9abd
000003e0: 51a4 c2bc 33c1 ad3d 4221 86bd 836f c1bd
000003f0: dd9d 2bbe ff18 1b3e 2c5f 1c3e 43bc 80bd
0.06303119 -0.06561612 -0.07484884 0.09931115 0.16077381 -0.14969382 0.008256566 -0.07633532
-0.11429942 0.062896214 -0.069508694 0.012883531 -0.061131865 0.14532901 -0.021014335 -0.03572468
-0.07460137 -0.14945138 -0.098968 0.101346225 -0.26368663 -0.028399527 -0.15630178 0.032021403
0.21632554 0.16748276 0.017012037 -0.22615491 0.13089733 0.03818271 -0.13216738 -0.061937477
0.10026381 0.14155762 0.010243828 -0.00916051 0.05710673 -0.049536034 -0.064893275 0.0923056
-0.13893689 0.09765304 0.03677069 -0.15743576 0.045752697 0.08912129 0.07975548 -0.062280625
0.11542192 -0.06655995 -0.060663152 -0.034847267 0.038413938 -0.0037203515 0.033195104 -0.12503238
0.12211208 0.0956399 -0.08583282 -0.06975611 -0.03246767 -0.029011814 -0.058413483 -0.005224262
-0.05606662 0.05958302 -0.20262112 0.1528404 0.026042204 0.095943265 0.040609412 0.047450595
-0.124946915 0.0016728303 0.049199656 -0.039582834 -0.12579703 -0.10917624 -0.000818617 0.0035526673
0.111237496 -0.088343814 -0.012354203 -0.09897444 -0.10946145 -0.008890072 -0.03435702 -0.050434705
0.13140196 -0.14350462 0.032453295 -0.018089969 0.065771535 -0.06335199 -0.034282137 -0.013289645
-0.035153564 -0.08195173 -0.014462292 0.11199007 0.071300015 0.15019388 0.02863935 -0.13111989
0.146118 -0.17958125 -0.005032813 0.120390825 -0.010571917 0.017001962 0.074028425 0.0668771
-0.06837219 -0.010511541 0.1192738 -0.020842552 -0.065589644 -0.13261001 0.16017412 0.05790234
0.048799783 -0.04496434 0.0532362 0.07308904 -0.114730395 0.1790457 -0.07891213 -0.039019197
0.07947664 0.08043215 0.050924096 0.00229923 0.00014595834 0.010065867 -0.060366724 -0.04045184
0.033448394 -0.038850915 0.1464269 0.092183426 0.1090298 0.050507933 -0.0700436 -0.15880574
0.15032464 0.0075308005 -0.0044765426 -0.16044846 0.063926004 0.09656311 0.120955355 0.0686448
-0.1523808 -0.048667412 -0.09134918 0.069836214 -0.082546696 0.032001823 0.06560053 0.032292847
0.05574019 0.08536546 0.015853228 -0.007240295 -0.07660619 0.12834443 0.0756928 0.055775557
0.11475407 0.027645947 0.16043597 0.028499572 -0.02290455 0.009904342 -0.040841524 -0.0154934665
-0.05013953 -0.057150077 -0.12611732 0.121183 0.033422243 0.023293039 0.17223355 0.18829331
-0.09810691 -0.07443051 -0.015699869 -0.09415243 -0.12460912 -0.07890127 -0.064968646 -0.06621395
-0.017872458 0.13538745 -0.21273078 -0.05254056 -0.18578298 0.118233025 0.0038921959 -0.1339161
-0.009850945 0.022001313 0.20619424 -0.018161159 0.020051112 -0.09746578 0.033980142 0.17425787
-0.04401628 0.019093387 0.041949864 0.06553573 0.020566855 -0.009544902 -0.009815221 0.094303824
0.039496295 0.0013045579 0.03214937 0.048939813 -0.008875644 0.045719627 0.16275588 -0.09011987
-0.10932135 0.15486664 0.17997146 0.010168702 -0.095475174 -0.18890229 -0.025909172 -0.09853013
-0.10189945 0.12106763 -0.002568595 0.02751937 -0.09157247 0.026562463 0.0070426813 -0.068649866
0.035316728 -0.17925894 -0.015714038 0.03793588 -0.10084004 0.008679721 0.03999078 -0.07542684
-0.023759993 0.084841155 -0.06549312 -0.09445097 -0.16759439 0.15146254 0.1527068 -0.06285908
