NetworkSaver/conv4_weight.npy (npy, 25680 bytes, 1 tensors)

array f4 [1, 2, 40, 80]
000000 e6 4a 06 be b7 4a d7 3c 56 31 6b 3d 24 d7 4f 3d
       -0.13114509 0.026280744 0.057420097 0.050742283
000010 8c 7c 21 bc f4 10 c0 3d 2e bd fd bd 5e 19 1f be
       -0.009856354 0.093782336 -0.12389599 -0.1553702
000020 04 9e 91 bc c5 bc a6 3c e8 27 53 3d fa d1 31 bd
       -0.017775543 0.020353684 0.05155173 -0.04341314
000030 06 46 f2 3a 7a 6c f1 3d b2 a4 1a 3d ad c9 29 bd
       0.0018484003 0.117882684 0.037754722 -0.0414521
000040 c4 f6 ad 3d d7 69 91 3d 29 2a 49 bd 90 66 50 bd
       0.084943324 0.071002655 -0.049112473 -0.05087906
000050 60 13 83 bc 1a d4 a2 bd 13 0a 5c bb 39 c0 0b be
       -0.01600045 -0.079506114 -0.003357534 -0.13647546
000060 1d e8 0d be 68 24 df ba a7 a9 c6 bd 17 3b 9c 3c
       -0.13858075 -0.00170244 -0.09700327 0.019071145
000070 39 2a e3 bd bc 82 f9 bd f1 41 fc 3d c5 af bf 3d
       -0.11092038 -0.12183139 0.12317265 0.09359697
000080 d8 9e 17 bc 09 6f 9f bd 32 86 0d be 9a c6 74 bd
       -0.00925418 -0.0778485 -0.13820723 -0.059759714
000090 a2 fa c0 bd e0 7d de 3c d3 13 1c 3d 02 1a 87 3b
       -0.094228044 0.027159631 0.038104843 0.0041229734
0000a0 36 a4 03 3d fc 12 8c bd c0 e2 b9 3c ea 9c c9 3d
       0.032139026 -0.068395585 0.02269113 0.09844382
0000b0 92 78 06 3e 23 2f f6 3d 5c dd b9 bd 4b 8f 5c 3d
       0.13131931 0.12020709 -0.09075424 0.053847592
0000c0 16 bc a3 bd 5e 9d ee 3b 39 4f 80 3d e8 31 7e bd
       -0.07994859 0.007281943 0.062651105 -0.062059313
0000d0 4d b7 84 3d 4e 9a 18 3e 42 de b5 b8 48 cb f1 bb
       0.06480274 0.14902613 -8.672151e-05 -0.0073789693
0000e0 69 fc f8 3d 33 fc 0f 3e ec c9 5f bd 8a 9f 3d 3e
       0.121575184 0.1406105 -0.054635927 0.1851789
0000f0 df 18 f7 bb c2 e9 96 bb 1d 9c ae 3d 18 12 80 3a
       -0.0075408067 -0.004605503 0.0852587 0.0009771017
000100 db 32 fb bd 28 d8 1d bb c6 f3 9a 3c 9b 6e c8 3c
       -0.12265559 -0.0024085138 0.018915068 0.024466803
000110 18 96 c6 3d c9 5d 8a bc 2c 55 d7 bd e9 32 3e be
       0.09696597 -0.016890423 -0.10514292 -0.18574108
000120 c8 4a 4b 3d 4b fb d7 bd 50 3d db bd 62 f9 46 3c
       0.049631864 -0.10545977 -0.10705054 0.012144418
000130 8d 38 0a 3d f0 7a d3 bc 84 1c 22 be 96 c7 bb bc
       0.033745337 -0.025815457 -0.1583119 -0.022922318
000140 9a 86 13 bd 3f 54 6a be 01 fc 89 be 16 6d 20 3e
       -0.036017038 -0.228837 -0.26950076 0.15666613
000150 50 97 ff be 91 41 b5 be cb 58 7d bc 43 7a e8 be
       -0.4992013 -0.35401586 -0.015463064 -0.45405778
000160 55 4e 0f be e2 5f 99 3c 7c 54 7b bd 3a 90 7f bd
       -0.13994725 0.018722478 -0.061359867 -0.062393405
000170 ad 99 91 bc 0c dd 8d be 2a 71 3c 3c 69 6f 3b 3e
       -0.017773474 -0.27707708 0.01150159 0.18304218
000180 d5 df db bd 2e ed 55 be f4 1c 7e bb 16 5b 28 be
       -0.10736052 -0.20891258 -0.0038774582 -0.16440997
000190 df a3 d7 bd 23 8d e6 bd 2a b8 3b be bb 3f ed bd
       -0.10529303 -0.112573884 -0.18331972 -0.11584421
0001a0 fa 7b 35 3e d8 a2 a3 3c eb 8b b1 bd 48 7b 7c be
       0.17723075 0.01997511 -0.08669265 -0.24656403
0001b0 fc 12 c2 3b b7 1d 8e 3e 3f 66 0d be 7b bd 50 be
       0.0059226733 0.27757046 -0.13808535 -0.20384781
0001c0 01 61 96 3e de 7c 25 3e 67 db 9d be 2f d1 22 be
       0.29370883 0.16160914 -0.30831453 -0.1590011
0001d0 2d 8b 18 bd 36 e2 3f 3d 72 5a 8d bd cc eb c1 bd
       -0.037242103 0.04684659 -0.06902017 -0.09468803
0001e0 11 d7 b0 be 17 c2 32 3c 72 47 02 be fa 1b c2 3e
       -0.34539083 0.010910532 -0.12722567 0.3791197
0001f0 fc 54 52 3e 5f 47 c1 3e 82 0b ed bb ed 0f 82 3e
       0.20540231 0.37749764 -0.007234038 0.25402775
000200 58 d9 a3 be 71 82 2d 3e 30 0e a1 3d ad d0 48 be
       -0.32001758 0.1694429 0.07864034 -0.19610853
000210 dd aa 43 3e e7 82 ca bd a9 e0 c8 bd a3 ca b1 bb
       0.19108148 -0.09888249 -0.098084755 -0.0054257675
000220 83 47 21 bc 87 62 bf bd f4 3c 4c bd 68 90 c8 3c
       -0.00984371 -0.093449645 -0.049862817 0.02448292
000230 94 b4 02 3d 94 89 82 be 71 3e 4c be 90 cb 94 bb
       0.031910494 -0.2549559 -0.19945695 -0.004540868
000240 d1 c5 e7 bd e0 89 0c be cf e9 b3 be f3 f6 6b be
       -0.11317027 -0.1372447 -0.3513932 -0.23043422
000250 d7 c0 59 bf d8 fc cc 3d ee 85 ed bd 57 64 b4 3d
       -0.85059875 0.100091636 -0.11597811 0.08808201
000260 d8 05 d8 bd 6a 41 7b bd c1 4f 85 bd 0b e1 97 bd
       -0.105479896 -0.06134168 -0.065093525 -0.074159704
000270 d3 a5 c3 be 97 b6 ac bd 5f a1 8d 3d 1c 21 ad bd
       -0.3821245 -0.08433264 0.06915545 -0.08453581
000280 0f bb 50 bd f8 3a 2d 3d fd 6b b2 3d a2 94 82 3d
       -0.050959643 0.042292565 0.087120034 0.06376006
000290 3b e1 f9 3d db c6 96 bd 76 87 8c bd ff 95 aa 3d
       0.122011624 -0.073621474 -0.068617746 0.08329391
0002a0 80 e1 02 3e 69 55 46 3d 3b b1 63 be 36 48 f7 bd
       0.12781334 0.048421297 -0.22235577 -0.1207432
0002b0 04 54 0f be bf 24 b6 3d 29 fd f2 bd d9 3b f4 3d
       -0.13996893 0.088937275 -0.11864693 0.119254775
0002c0 56 60 a0 3c ea e1 bb 3c 10 a7 00 be 51 3f 28 3e
       0.019577187 0.022934873 -0.1256373 0.16430403
0002d0 36 eb 4d bd d2 d0 45 3e 53 38 44 3d 73 f9 09 be
       -0.050273143 0.1931794 0.047905277 -0.13474064
0002e0 7f 58 01 be 72 57 47 be 80 d0 03 be 3b 28 3e bc
       -0.12631415 -0.19466951 -0.12872505 -0.011606271
0002f0 10 4b 81 bc bb 67 cc bd 18 0a cf 3c b3 23 c6 3d
       -0.015782863 -0.099807225 0.025273368 0.09674778
000300 c4 4c ff 3d d5 0c 83 bc 03 a9 38 3d 6f c3 26 3d
       0.12465814 -0.01599733 0.045083057 0.040713724
000310 39 a5 57 bd 0c 05 df bd 9e 4d cf 3d 06 a6 f4 3d
       -0.052647803 -0.108896345 0.10122226 0.11945729
000320 97 6f d1 bc 16 ad 5d 3d 3c ba 9e bc 91 2b 6b 3d
       -0.025565905 0.054120146 -0.019375913 0.057414595
000330 ad 88 02 be 1d 57 6d bd 3d 0b 5d bd 9e 34 18 3e
       -0.1274745 -0.057944406 -0.053965796 0.14863822
000340 7a 8d ac ba ee fe e8 bd 7d 47 ad bd 6c 8f a2 3c
       -0.0013164722 -0.11376749 -0.08460901 0.01984378
000350 5c c3 0b 3d 8c 17 cc bd 22 0a 2a bd c5 3e fb 3c
       0.034121856 -0.09965429 -0.04151357 0.03066958
000360 f6 a9 39 be 83 4f be 3d 83 4f 46 be 11 9f 66 bd
       -0.18131241 0.092925094 -0.19366269 -0.05630404
000370 18 f5 75 bd df a8 79 bd f3 f7 d0 bd c3 16 fa bd
       -0.060048193 -0.060952064 -0.102035426 -0.12211373
000380 9d c2 2e be 32 06 3f bd 88 7e 94 bd a9 a7 1b 3e
       -0.17066427 -0.046636768 -0.072506964 0.15200676
000390 52 33 c8 bd f6 17 6c 3d e6 9b 4a bd 41 26 2a bd
       -0.097754136 0.05764004 -0.049465083 -0.041540388
0003a0 96 ae 0e 3d c2 3f 1b 3e 53 89 d3 3b e6 71 9e bc
       0.034834467 0.1516104 0.0064555793 -0.01934142
0003b0 d8 93 06 be 08 ca 2f be e7 c8 14 bd e5 f3 75 bd
       -0.13142335 -0.17166913 -0.036324408 -0.06004705
0003c0 1d 6a 25 bd ed 3c 1b be 3e 0c cd 3e c1 b1 98 bd
       -0.0403844 -0.1515996 0.40048403 -0.07455779
0003d0 3c 40 00 3e d2 ef a9 3d 2c a0 4b be eb 0f c2 bc
       0.12524503 0.08297695 -0.1988532 -0.02368923
0003e0 07 ed df 3d af bd 04 be 86 42 56 be 2e 40 51 3e
       0.10933881 -0.12962984 -0.20923814 0.20434639
0003f0 91 7e 3c 3d 64 a5 c5 be cf df 00 bf 73 ff 8a 3e
       0.04601914 -0.38602746 -0.50341505 0.27148017
