NetworkSaver/conv2_weight.npy (npy, 1680 bytes, 1 tensors)

array f4 [1, 2, 10, 20]
00000000: c6cc 173e 4761 113e 63bd 5f3e 24fe 12bd
00000010: 7be0 043d a02a 48be 7a29 acbe 2dae 2bbe
00000020: c026 cabe cb94 a0be 2a0f 9abe 4300 35be
00000030: e663 023f ac00 15bf 7dc1 c1bd 2020 86be
00000040: 919a c4be eab8 d83e 7502 29be cef6 d13e
00000050: 6fff 5a3e a553 8cbe 4ec8 d7bd da5c 243e
00000060: 1019 d1bd 97d7 c03e 1140 7dbe 11cb 91bd
00000070: 00f3 bfbe bb97 bc3e d284 b53e 0144 2b3f
00000080: 3fe2 883e a49f 9c3e a1ce 68be ec18 f8be
00000090: 712b 26bd d6a2 8cbe 410b 37be 3e08 803e
000000a0: 3bde e0bd 8eb9 23bf 3c0f 11be 469c 49bf
000000b0: 0e8a 40be 1712 b1be bb38 b83e 5090 ddbe
000000c0: 406e ac3d 4b42 4abf bceb bc3d bfe0 d5be
000000d0: 3578 0b3e 7d70 b03e 3db1 83be 502d 84bd
000000e0: 9c02 1bbf edc6 053e 14c6 89be a268 203d
000000f0: ea09 543e bea6 57be 972f 5abe 3437 8abe
00000100: 9c3b c63b 51ea a6bd f68a 693e 3ffb 32be
00000110: 55e2 b9bd 3ed2 a0bd e795 823e 305e cbbe
00000120: f7a9 8ebb f3ae 9a3e 4a6e b23e 3f22 11bf
00000130: c00f 693e 4341 6dbe beb5 5cbf 9213 193f
00000140: cdce 353d 8e03 50be a0e0 e9be 0012 68be
00000150: 319e 993d 7223 b2be 3ea0 eb3d a42b d0be
00000160: 22e0 75be 0f1b 8d3e b751 c43e b344 a0bd
00000170: 6234 f4be 52c8 293e 258c 3b3d 31b8 d63e
00000180: 1f0d 0abe 1543 87be 77a2 0cbe d38c 333e
00000190: ccab 51be 228e a3be 6254 ddbe dd28 89be
000001a0: 4ab7 173e eb67 88be 867d 60be 4d44 12be
000001b0: 1306 5e3c 9e61 bbbd c427 223e 17aa 36bd
000001c0: fedf 5dbe f5a8 c63d f742 10bf f5d8 4e3e
000001d0: 286d 73bd cbe0 1d3d b7a1 e4bd bfaf 2abf
000001e0: b0f3 9b3e 632e 193f 4286 403f fdae cc3d
000001f0: 593f 0838 d892 023f ad93 a23e cc61 c43d
00000200: debe f93c de59 303d af2a 183e 274e b23d
00000210: a3ed ec3a 7d9a 973e cc19 c03e e8d8 14bc
00000220: 2c4d 9b3e 5a08 8d3d 7a3d 013d aa66 a9be
00000230: 70e1 933e 55f0 633e 66c1 7f3e 09bc 3d3f
00000240: 6dd3 1a3e aa5e 123f 31e8 91be 3bad a13e
00000250: a91a 0e3e 7bdd a03e 96e4 953e eee1 823e
00000260: 4fbf 75be 57b9 453d 516d be3d 0edf 1cbe
00000270: 124d e53e 00e5 42bd 7fbd 863e 7b6f 02be
00000280: 261e dabc 6289 66bb 9689 02be 3ca6 a5bd
00000290: 45a8 eebe c718 61ba 5c3d b2bd b1a3 c6bd
000002a0: 6d45 ce3e 8a84 3dbe 5b67 263e d23c cebd
000002b0: 749a 2e3d ec3c d13e 3fce a2be eba9 c5bd
000002c0: 3a46 713c 7f39 97be dab5 333d 186a 93be
000002d0: c2fa 84be 73e5 f0bc fa94 d9be 8fbd 163e
000002e0: 43a1 5f3c 2e0b b73e 7877 febd 31a7 7c3d
000002f0: 5bc4 88bd 222b c63d 74d7 693e e7a1 743d
00000300: 90fa 923d 1be7 d0bd 136b 0cbe 5764 12be
00000310: bd79 393d 0478 6fbc 19c4 d4be 4694 013e
00000320: 3f19 dabd be7b 08be 019f d3bd 87a3 b53e
00000330: 6014 1d3e a594 7c3e 9efb b9bd 4066 0dbe
00000340: c0db 0a3e 856c 86be 0ad5 983e c06d 373d
00000350: b504 323f 6a4c 38bf 336c 913e 7e95 843e
00000360: 86ac b4be f623 b8be f0d2 2e3e 2c9a f0be
00000370: 6fdc f73e d38a b9bd 4bdc 46be e344 a7bd
00000380: 3384 49be 90be c9be 380d 013e 31c4 87bd
00000390: 73da 87bc 2f87 17be 872e 66be ae4f 91be
000003a0: f338 a7be e9e4 843d 3ba0 d03d a28d f43e
000003b0: 030b 25bd b046 053f 48ab b7bd f94b 593d
000003c0: 59bd 403f 8d81 1fbe d648 5fbe 4cd1 723e
000003d0: f699 59be dd8c 4b3e 92a3 7cbe eb8f d3bd
000003e0: abcf dabd de8d 09bd b1be 26bf c3ca 35be
000003f0: 5c9b 38be 3348 5abe 6c66 e3bc 0664 153e
0.14824209 0.14197265 0.21849589 -0.0358869 0.032440644 -0.1954751 -0.33625394 -0.16765662
-0.3948269 -0.3136352 -0.30089694 -0.17675881 0.5093368 -0.5820415 -0.09460733 -0.26196384
-0.38399175 0.42328578 -0.16504844 0.4100861 0.21386503 -0.27407566 -0.10536252 0.16051045
-0.102098584 0.37664482 -0.2473147 -0.0711881 -0.37490082 0.3683451 0.35452896 0.6690064
0.26735112 0.30590546 -0.22735073 -0.48456514 -0.040568773 -0.27467984 -0.17875387 0.25006288
-0.10979887 -0.6395501 -0.14165968 -0.7875408 -0.18802664 -0.34584114 0.35980782 -0.43274164
0.08419466 -0.79007405 0.0922465 -0.4177303 0.13620074 0.34460822 -0.2572116 -0.06453955
-0.60550857 0.13064165 -0.26908934 0.039162286 0.20706907 -0.21059701 -0.21307217 -0.26995242
0.0060495865 -0.08150161 0.22806916 -0.17478655 -0.090763725 -0.078526005 0.2550499 -0.39720297
-0.0043537575 0.302116 0.3484977 -0.5669288 0.22759914 -0.23169427 -0.86214817 0.59795487
0.044386674 -0.20313856 -0.45679188 -0.22663116 0.07500876 -0.34792668 0.11505173 -0.40658295
-0.24011281 0.27559707 0.38343593 -0.07825603 -0.47696215 0.16580322 0.04578795 0.41937402
-0.13481568 -0.26418367 -0.1373385 0.17534189 -0.20475692 -0.31944376 -0.4322844 -0.2678899
0.14816013 -0.26641783 -0.21922883 -0.14283867 0.013551253 -0.091494784 0.15835482 -0.044595804
-0.21667477 0.09700195 -0.5635218 0.2019995 -0.05943027 0.038544457 -0.11163657 -0.6667442
0.30459356 0.59836406 0.7520486 0.09994314 3.2483924e-05 0.51005316 0.31753293 0.09588966
0.03048652 0.043054454 0.14860032 0.087063126 0.0018076192 0.29610053 0.3751968 -0.009084918
0.30332315 0.068863586 0.03155277 -0.3308614 0.28882933 0.22259648 0.2497612 0.74115044
0.15119715 0.57175696 -0.2849746 0.31577477 0.13877358 0.31418976 0.2927596 0.25562996
-0.2399876 0.048272457 0.09298194 -0.15319464 0.44785362 -0.047581673 0.2631645 -0.12737839
-0.026625704 -0.0035177101 -0.12747797 -0.08088347 -0.46612754 -0.0008586761 -0.087031096 -0.096991904
0.40287343 -0.18507591 0.16250364 -0.10070194 0.042627767 0.40866792 -0.31797978 -0.0965155
0.014726216 -0.29536054 0.0438746 -0.2879188 -0.25972563 -0.029406285 -0.42496473 0.14720748
0.013649288 0.35750717 -0.124251306 0.061682884 -0.06678077 0.09676196 0.22836095 0.059724715
0.07176697 -0.1020033 -0.1371272 -0.14296089 0.045282114 -0.014616016 -0.4155586 0.12654218
-0.106493466 -0.13328454 -0.10333062 0.35476324 0.15339804 0.24666078 -0.09081195 -0.13808537
0.1356039 -0.2625467 0.29850036 0.0447824 0.6953843 -0.719916 0.28402862 0.25895303
-0.35287875 -0.35964936 0.17072654 -0.46992624 0.48410365 -0.09059682 -0.19419973 -0.08167436
-0.19679336 -0.394032 0.12602699 -0.066292174 -0.016583657 -0.14797662 -0.22478686 -0.28381103
-0.32660636 0.06488974 0.101868115 0.47764307 -0.040293705 0.52060986 -0.08968216 0.05305097
0.7528892 -0.15576763 -0.21805128 0.23712653 -0.21250138 0.19877954 -0.24671772 -0.103301845
-0.10684141 -0.03358256 -0.6513472 -0.17753129 -0.18028015 -0.21316604 -0.0277588 0.14588937
