NetworkSaver/conv1_weight.npy (npy, 1080 bytes, 1 tensors)

array f4 [1, 5, 5, 10]
000000 c6 0e be 3d 8f fa 8a 3c 54 a2 3e be 74 16 22 3c
       0.092801616 0.016965179 -0.18616611 0.009893049
000010 ee 0f 8c 3c 93 ee 18 3d de 8b 78 bd dc 1c 0c be
       0.01709744 0.037336897 -0.060680263 -0.13682884
000020 22 3e e6 3c 46 b1 3b be ee 2b 47 bd 4f f0 cb bd
       0.0281058 -0.18329343 -0.04862588 -0.099579446
000030 7f b9 04 be 9d c1 05 be b5 c9 43 be f0 da a5 bd
       -0.12961386 -0.13062139 -0.19119914 -0.080984
000040 53 bf 56 3d c3 2c 03 be 4d 39 e8 bd 70 ce d4 bc
       0.052428555 -0.12810044 -0.11339054 -0.025977343
000050 9e cd 2e bd 1a 7d b9 3c 90 b6 a9 bd 7f 0d d3 3c
       -0.04267656 0.02264266 -0.08286774 0.025763271
000060 74 16 0f bb 62 68 73 bd 7b be ed 3d 48 d1 92 bd
       -0.0021833451 -0.05942572 0.11608597 -0.071688235
000070 e0 36 ec 3c a2 e3 cc 3d 32 7f c0 3b 85 28 f4 39
       0.02883476 0.10004355 0.005874538 0.00046569496
000080 28 c2 da bd 0c 8a 45 bc 91 7c 99 3d d6 49 36 bc
       -0.106815636 -0.012056839 0.07494462 -0.011126002
000090 df 10 55 bd 41 bf 39 3e 8e 93 41 bd de 6f 1a 3e
       -0.052018043 0.18139364 -0.04725986 0.15081736
0000a0 88 81 66 3d 82 d1 d7 bb bc bb 49 be 76 8c 57 3d
       0.056275874 -0.0065862546 -0.19700521 0.05262419
0000b0 31 d2 85 bd 3c 41 0a 3d 98 0c cf 3d 46 03 c0 3d
       -0.065342315 0.03375362 0.10109824 0.09375624
0000c0 f1 77 33 bd dc 16 a0 3c 1a 95 a5 3d 70 5a 19 3e
       -0.043815557 0.01954215 0.080850795 0.14975905
0000d0 4b 63 4b 3d 2c 4d b1 3d 3a ab a3 3d 64 b2 e7 38
       0.04965524 0.086572975 0.07991643 0.00011048166
0000e0 9d 14 2d 3d 90 a5 9f bd 4a 30 f2 3d ea 98 47 3d
       0.042255986 -0.077952504 0.11825617 0.048729815
0000f0 ac fc c8 3d 5e 97 0d bd 94 d9 9f bd cb f8 ee bd
       0.09813818 -0.034568183 -0.078051716 -0.11668547
000100 f7 70 06 be ef a5 de 3d 60 5f 02 3d 35 e4 4c be
       -0.1312903 0.10871493 0.031829238 -0.20008929
000110 2e 77 a2 3d 92 fc 3e 3e 23 96 e6 39 dd 23 94 bd
       0.07932888 0.18651035 0.0004398088 -0.07233403
000120 e3 11 b5 3b 97 ac c5 3d a4 9f d3 3d 12 f8 fd bd
       0.005525814 0.096520595 0.103331834 -0.12400831
000130 e9 46 5a bd 45 1f c6 bc 78 8b 39 3c ca 37 99 bd
       -0.05329028 -0.024184832 0.011324756 -0.07481344
000140 4a 43 aa bc 57 e0 0b 3e 82 cd 00 be 42 14 8c 3d
       -0.020784039 0.13659798 -0.12578395 0.06839801
000150 19 9d 17 3e 23 11 5f 3d 48 86 ac bc e2 a3 b0 3d
       0.14806022 0.054459702 -0.021060124 0.08625008
000160 87 1b 10 3e af 10 04 3e 40 38 d1 bd 78 dc e5 3c
       0.14073001 0.1289699 -0.10215807 0.02805923
000170 e5 56 e9 3d e6 df fd bd 7d 75 c5 bc 1a 95 3d 3d
       0.11393527 -0.12396221 -0.024103874 0.046284772
000180 db 8e c3 3d 64 57 80 3d 9e 78 3b 3d 19 bb 2f 3d
       0.09548732 0.062666684 0.045769326 0.04290304
000190 2f f3 38 3e 07 fc 60 be 76 fb a1 bd 30 fe aa bd
       0.18061517 -0.21971141 -0.079092905 -0.08349264
0001a0 82 7d 13 3e 37 8b de 3d 35 19 b0 bc b8 f9 5c bd
       0.14403346 0.10866397 -0.021496395 -0.053949088
0001b0 e9 54 41 bd 8d 45 24 bd 0a 5f 8a be 67 d5 70 3e
       -0.047200117 -0.04010539 -0.27025634 0.23518907
0001c0 1e 89 f4 bd 3d 2a 14 bd ad 8d 25 3e 76 b1 c0 bb
       -0.119402155 -0.036173094 0.16167326 -0.00588053
0001d0 88 ac e8 3d 4f 87 a6 3d e1 77 22 be 70 2f 02 3c
       0.11361033 0.08131277 -0.15866043 0.00794588
0001e0 12 bf cf bd 0b 14 77 3c d8 78 74 3d cd c7 5a 3e
       -0.10143866 0.015080462 0.059685558 0.2136528
0001f0 5a 39 37 bd d7 9d 9f 3c 3c 0a 9d bc 44 d6 21 3b
       -0.04473243 0.019484444 -0.01916992 0.0024694363
000200 8d 70 48 3d 14 47 07 bd 83 fa 8f 3e 84 31 21 be
       0.04893546 -0.03302677 0.28120813 -0.15741545
000210 9c 4c bf bd cf 76 a2 bc 84 7f 04 3e df 03 52 3d
       -0.09340784 -0.019832043 0.12939268 0.051273223
000220 c3 7f 09 bc b2 2c f8 bb 77 4c 02 be f9 80 3d be
       -0.008392277 -0.0075736875 -0.12724482 -0.1850623
000230 b0 72 cd 3c a5 29 21 bd f6 ca a7 3d da 77 8f 3d
       0.025079101 -0.039346356 0.081930086 0.07005282
000240 18 af 20 bd 9c 6f 5b 3e 84 d0 1a 3e 00 08 38 be
       -0.039229482 0.21429294 0.15118605 -0.17971802
000250 51 89 d7 bd 2c b1 de 3d 0d c8 91 bd 76 12 0b be
       -0.10524238 0.108736366 -0.07118235 -0.13581261
000260 53 33 93 3d a0 01 a5 3c 1b 06 ef bd 8f 23 87 bd
       0.07187524 0.020142376 -0.116710864 -0.06598579
000270 4c ea b0 bd b5 3a 42 bd 16 bc 2e be c5 aa 11 3e
       -0.086384386 -0.04741927 -0.17063937 0.142253
000280 0b e5 70 bd 91 50 16 bd 2c 10 7f bc e8 7d 05 bd
       -0.058812182 -0.036697928 -0.0155678205 -0.032590777
000290 af 9c 26 3e 8c 03 21 3e 1b 06 3e bd 87 b7 d1 3c
       0.16270708 0.1572401 -0.04639254 0.025600208
0002a0 16 7b 33 3e 4b e0 35 3e 3e 28 c9 bc 67 68 a6 bd
       0.17527422 0.17761342 -0.024555322 -0.08125382
0002b0 80 25 84 bd 13 cd 9c 3d 9e 3d cd 3d c0 13 0c bd
       -0.06452465 0.07656302 0.10021518 -0.034198523
0002c0 86 95 37 be 64 63 10 3d 06 7d 64 3e d5 78 0a be
       -0.17928132 0.035251036 0.22313318 -0.13522656
0002d0 02 ab 14 3c 45 22 1a bc 1a d9 8d 3d e3 bb 99 bd
       0.009073975 -0.009407585 0.069261745 -0.0750654
0002e0 28 ed fe 3d 96 c6 ae 3c 3b 58 9e bd 89 23 1d be
       0.12447578 0.021334928 -0.077316724 -0.15345587
0002f0 bb cb a1 bd e6 f5 94 bd bf 1c c2 bd e9 e0 ca 3c
       -0.07900187 -0.07273464 -0.09478139 0.024765449
000300 bc 96 4e 3d 08 f1 0e be f6 45 00 36 6c 19 cb bc
       0.05043672 -0.13959134 1.911421e-06 -0.024792396
000310 62 59 ff bc 19 92 79 bd 46 a0 29 3e 8a 04 20 3d
       -0.03117055 -0.060930345 0.16565046 0.03906683
000320 b9 3a 1e 3d 80 5d 53 be a1 97 e7 3d b9 4e ab bc
       0.03863022 -0.20641136 0.11308218 -0.020911561
000330 dd 9f af 3d d2 21 98 3d 28 3b ab bc c1 1e b1 3c
       0.085754134 0.07428326 -0.020902231 0.02162111
000340 25 31 a2 bd ba 9e b6 bc 79 f4 36 3e 39 7d 17 3e
       -0.0791953 -0.022292484 0.17866696 0.14793862
000350 4c 60 42 bc b6 06 05 3e de 39 13 3d 01 63 9d bd
       -0.011863779 0.12990841 0.03594386 -0.07684899
000360 bd 57 e1 bd f2 1d 31 bd 71 c6 3f 3e 7e bc 09 be
       -0.11003063 -0.04324145 0.18728043 -0.1345081
000370 49 63 bc 3d c6 40 a7 3d b4 7c cc bc a5 f2 b2 bc
       0.09198625 0.081666514 -0.024961807 -0.021844218
000380 b5 70 39 bd 76 09 12 3d 06 f0 fe bc a2 4b c9 3c
       -0.0452735 0.035653554 -0.031120311 0.024572197
000390 fc fb aa bc 5e 66 4b bc 4a 4c 3a bd ca b3 a0 3d
       -0.020872109 -0.012414543 -0.04548291 0.07846792
0003a0 79 4b cb bc f9 00 44 bd 0a 58 c4 3d 3d 0a 66 3d
       -0.024816262 -0.04785249 0.095871046 0.056162108
0003b0 14 5d 59 3d 81 33 50 3e 39 a8 b3 3d d5 48 9f bd
       0.05306728 0.20332147 0.0877232 -0.077775635
0003c0 01 11 e5 bc 81 fa dc 3c 1b e9 7a bd 6d 00 24 bc
       -0.02796221 0.026974918 -0.061257463 -0.010009867
0003d0 93 68 82 bd 55 54 12 3e 3d 16 ae 3d 59 80 10 3e
       -0.06367602 0.14289983 0.08500335 0.14111461
0003e0 92 21 fc 3a 63 ef 81 bd
       0.0019236079 -0.063444875
