NetworkSaver/conv2_weight.npy (npy, 4080 bytes, 1 tensors)

array f4 [1, 5, 10, 20]
-0.03185507 0.026656218 0.010294378 -0.06637443 -0.07128303 0.03470114 -0.055875797 -0.15473206
0.13395205 0.044688374 -0.010512411 -0.071714014 -0.05366593 -0.007858042 -0.0632586 0.044999614
0.111278445 0.048772156 0.04614149 0.054536786 0.012934438 -0.084297016 0.047834367 0.038103357
0.07421729 0.07239649 0.023937175 -0.06549615 0.14959429 -0.11015442 -0.16763984 -0.10070735
0.0141798835 -0.021742538 -0.0066484394 0.058421362 -0.18544586 -0.06987432 0.04236255 0.03938735
-0.076686434 -0.07297223 -0.024424497 0.01811071 0.062244564 -0.06103684 0.044420373 0.08905393
0.041041464 0.19251603 0.04451978 -0.16641799 0.03435065 0.060880445 -0.015790874 0.004225945
0.070581876 0.07072327 0.10202882 -0.13263465 0.016717687 0.10774377 -0.0696265 0.090595245
-0.033844784 0.0062507167 0.09492554 -0.22087076 0.1988909 0.06635418 -0.026195114 -0.0153775625
-0.010918951 -0.047407847 0.0128794825 0.0756198 -0.013937413 0.092342526 -0.08096887 0.047044195
-0.10118704 0.010952197 -0.08492305 -0.058443293 0.057939343 -0.13567404 0.10269226 -0.04811175
-0.026741836 -0.007533079 -0.030124087 0.13469847 0.05638495 -0.15753813 0.0708321 -0.06442711
-0.092021324 -0.036240328 0.051099073 0.030780314 -0.010334792 0.12539612 0.047763966 0.049499672
0.14239174 0.048298605 0.016741814 0.114401035 0.083049744 0.0474765 0.05290036 -0.04110985
-0.1802546 0.056379322 -0.047073413 0.08614901 0.080455564 -0.09142973 0.11706516 -0.16965856
0.06335577 0.061274275 0.031351108 0.15086001 -0.07003576 -0.033915915 -0.039410233 -0.22026783
0.18507096 -0.049681455 0.17196555 0.15172435 0.16147044 0.028700536 0.0052198307 0.13336115
-0.077835135 -0.10377102 -0.02834525 0.08132183 0.068076335 0.09516055 -0.020071333 -0.074229956
-0.02666394 0.06751035 -0.0632212 -0.050975524 -0.036193967 -0.08276566 0.10705805 0.14268303
-0.009371962 0.049731366 0.104242586 -0.029550778 -0.0148521485 -0.050320543 -0.21620959 -0.0199107
0.078906864 0.013281181 0.015903259 0.15246403 -0.10424604 0.1793768 0.25877553 -0.026747435
0.02940519 0.12964568 -0.037189696 0.029540919 -0.007241495 -0.1242063 -0.030450094 0.012480027
-0.15765582 0.10290108 0.013389231 -0.1418385 0.06557337 -0.0099738315 0.033073653 -0.040624563
0.19414398 0.09972047 -0.09954033 0.07798754 0.063082114 -0.11211347 0.05716262 -0.14308594
-0.089365825 -0.09592575 -0.036359176 0.20961803 -0.1173777 -0.124037795 0.09443714 -0.20648359
-0.10824781 0.027833112 -0.03900545 0.09354553 -0.004660385 -0.055360556 -0.03518313 -0.041313432
0.05612854 0.05660346 -0.0760746 -0.0134133 -0.040317833 -0.071882255 0.110637814 -0.022732174
0.2353368 0.11912928 0.060739975 -0.050225586 0.09635629 -0.1424149 -0.038139876 -0.07660815
-0.0106159765 -0.07089122 0.09638749 0.0604457 0.06799295 -0.07329423 -0.14204936 0.19247742
-0.040542778 0.09402888 0.12080028 -0.10618468 0.12833853 0.059460174 -0.14220397 0.02968625
-0.105610654 -0.08338261 0.09455799 0.0287272 0.09084187 -0.04174713 0.13178614 -0.06818612
0.12051435 0.017564222 -0.18285158 0.18078206 -0.104212396 0.09542543 -0.007440466 0.08118781
00000000: 767a 02bd 245e da3c c0a9 283c 51ef 87bd
00000010: d6fc 91bd c822 0e3d 05de 64bd 1572 1ebe
00000020: ba2a 093e 280b 373d 3f3c 2cbc ccde 92bd
00000030: ced0 5bbd 04bf 00bc ba8d 81bd 8451 383d
00000040: f4e5 e33d 50c5 473d dcfe 3c3d f761 5f3d
00000050: f7ea 533c eaa3 acbd f8ed 433d 4412 1c3d
00000060: 3cff 973d 9c44 943d e517 c43c d822 86bd
00000070: 3f2f 193e a498 e1bd c7a9 2bbe a83f cebd
00000080: be52 683c 681d b2bc 27db d9bb 3d4b 6f3d
00000090: 85e5 3dbe 441a 8fbd 5a84 2d3d a154 213d
000000a0: c70d 9dbd 7772 95bd e215 c8bc e95c 943c
000000b0: 28f4 7e3d c401 7abd 23f2 353d e861 b63d
000000c0: 181b 283d ec22 453e 5f5a 363d 7a69 2abe
000000d0: 44b3 0c3d c65d 793d dd5b 81bc cc79 8a3b
000000e0: 3b8d 903d 5dd7 903d 7cf4 d03d 61d1 07be
000000f0: 88f3 883c c4a8 dc3d 5798 8ebd 008a b93d
00000100: d4a0 0abd d0d2 cc3b 5268 c23d f22b 62be
00000110: 0eaa 4b3e b3e4 873d 2397 d6bc 2cf2 7bbc
00000120: 66e5 32bc bb2e 42bd 7704 533c 8ede 9a3d
00000130: bf59 64bc 141e bd3d 02d3 a5bd 6ab1 403d
00000140: 273b cfbd d870 333c 23ec adbd 3c62 6fbd
00000150: ce51 6d3d 23ee 0abe 5250 d23d d410 45bd
00000160: b211 dbbc 0cd8 f6bb cac6 f6bc 65ee 093e
00000170: e8f3 663d ad51 21be 6c10 913d 5cf2 83bd
00000180: ad75 bcbd bd70 14bd 434d 513d ff26 fc3c
00000190: 4253 29bc d767 003e 26a4 433d 2bc0 4a3d
000001a0: 24cf 113e c2d4 453d 2126 893c 174b ea3d
000001b0: fc15 aa3d b876 423d 0cae 583d cd62 28bd
000001c0: a994 38be 01ee 663d 0dd0 40bd e46e b03d
000001d0: e3c5 a43d 833f bbbd dcbf ef3d f9ba 2dbe
000001e0: acc0 813d bcfa 7a3d 056a 003d 0c7b 1a3e
000001f0: e96e 8fbd 6aeb 0abd a06c 21bd e48d 61be
00000200: 3e83 3d3e c87e 4bbd bd17 303e a15d 1b3e
00000210: 8258 253e 631d eb3c 1d0b ab3b d38f 083e
00000220: 0768 9fbd e785 d4bd 4c34 e8bc 0f8c a63d
00000230: 9b6b 8b3d 89e3 c23d a36c a4bc e005 98bd
00000240: 566e dabc de42 8a3d 1e7a 81bd b6cb 50bd
00000250: 2040 14bd 0b81 a9bd 4041 db3d 801b 123e
00000260: dc8c 19bc 1eb3 4b3d 237d d53d 7914 f2bc
00000270: 6d56 73bc ea1c 4ebd 0c66 5dbe c41b a3bc
00000280: ec99 a13d 5099 593c 8d47 823c 881f 1c3e
00000290: f37e d5bd 8dae 373e 3a7e 843e 701d dbbc
000002a0: 27e3 f03c d6c1 043e 3954 18bd ccff f13c
000002b0: 104a edbb df5f febd 7a72 f9bc 0779 4c3c
000002c0: 8770 21be cdbd d23d 815e 5b3c 1d3e 11be
000002d0: 554b 863d 4869 23bc 3d78 073d f165 26bd
000002e0: aecd 463e 3f3a cc3d cddb cbbd eeb7 9f3d
000002f0: 3231 813d bf9b e5bd 5a23 6a3d 1f85 12be
00000300: 6e05 b7bd b874 c4bd 5ced 14bd 1ca6 563e
00000310: b863 f0bd 8707 febd 4268 c13d 6f70 53be
00000320: 07b1 ddbd 4402 e43c 2ec4 1fbd cd94 bf3d
00000330: 25b6 98bb c0c1 62bd 301c 10bd 4638 29bd
00000340: 0ae7 653d 08d9 673d 00cd 9bbd 75c3 5bbc
00000350: 5024 25bd 0137 93bd 1496 e23d d338 babc
00000360: 21fc 703e 0dfa f33d 7bca 783d 58b9 4dbd
00000370: 7256 c53d 36d5 11be 8f38 1cbd bce4 9cbd
00000380: a2ee 2dbc 6a2f 91bd ce66 c53d e995 773d
00000390: e33f 8b3d 491b 96bd 6375 11be cd18 453e
000003a0: 2f10 26bd 3792 c03d 2366 f73d 5a77 d9bd
000003b0: 2d6b 033e 838c 733d eb9d 11be 9430 f33c
000003c0: 664a d8bd 80c4 aabd 9fa7 c13d 4e55 eb3c
000003d0: 4d0b ba3d 0aff 2abd f2f2 063e 2aa5 8bbd
000003e0: 3ad0 f63d d8e2 8f3c 723d 3bbe ef1e 393e
000003f0: 4f6d d5bd 686e c33d 27cf f3bb cb45 a63d
