NetworkSaver/conv1_weight.npy (npy, 480 bytes, 1 tensors)

array f4 [1, 2, 5, 10]
0	0x3eba5542	0.36393172
1	0x3dbde271	0.09271706
2	0xbdc2b818	-0.09507769
3	0xbe4d4159	-0.2004446
4	0x3d50932c	0.050921604
5	0x3ea187e2	0.31548983
6	0xbeebb62a	-0.46037418
7	0xbe56990c	-0.2095682
8	0x3d2b5853	0.04183228
9	0xbdd0a776	-0.10188191
10	0xbf112aae	-0.5670575
11	0x3c9f9d21	0.019484105
12	0x3e8a410e	0.27002758
13	0xbd17441a	-0.03693018
14	0x3df6fa3b	0.120594464
15	0x3dbb350a	0.09140976
16	0xbddce17c	-0.10785195
17	0xbf08b110	-0.53395176
18	0xbe25d72d	-0.16195364
19	0xbec06a7b	-0.37581238
20	0x3efb524f	0.49086234
21	0xbd54073e	-0.05176472
22	0xbec21026	-0.37902945
23	0xbdb5bcda	-0.08873911
24	0xbe7357f5	-0.23764022
25	0x3d86d32d	0.06583247
26	0xbdaeab79	-0.085287996
27	0x3d5a49e2	0.053293116
28	0xbece32e3	-0.40273198
29	0x3de1e96d	0.110308506
30	0x3c5d14a5	0.013493692
31	0xbe5ff7df	-0.21871899
32	0xbede19b6	-0.4337899
33	0xbee3e459	-0.44510153
34	0xbe8c5d5e	-0.27414984
35	0x3ee32d5e	0.4437055
36	0xbbf1954c	-0.007372534
37	0xbcc0151f	-0.023447571
38	0xbe8110ba	-0.25208074
39	0xbdd3fe56	-0.10351245
40	0x3d1417b8	0.036155432
41	0x3e48e93d	0.19620223
42	0x3c086a5a	0.008326137
43	0xbe8cfaea	-0.27535182
44	0xbdaaea5e	-0.08345483
45	0x3e4f3ce4	0.20238072
46	0xbebc0229	-0.36720398
47	0xbb42b87c	-0.0029712012
48	0x3e46ba33	0.19406967
49	0xbd3bea80	-0.045877934
50	0x3e0182f1	0.12647606
51	0xbe80f089	-0.25183514
52	0x3f2c80eb	0.67384213
53	0x3de8893f	0.113543026
54	0x3e980625	0.29692188
55	0xbe977e4f	-0.29588553
56	0xbe5d3512	-0.21602276
57	0xbe5c09ea	-0.21488157
58	0x3dbd10ae	0.09231697
59	0xbe773e4b	-0.24144857
60	0x3e328bfa	0.1743621
61	0x3f329927	0.6976494
62	0x3e8fb777	0.2806966
63	0x3ecd7e02	0.401352
64	0x3f51b312	0.81913865
65	0xbe801c90	-0.2502179
66	0x3e7e7444	0.2484904
67	0x3eaf0d00	0.34189606
68	0xbda9690c	-0.08271989
69	0x3e769002	0.24078372
70	0xbe47d120	-0.19513369
71	0xbdc3eff1	-0.095672496
72	0xbe5b9044	-0.21441752
73	0x3eda6530	0.42655325
74	0xbe3cb785	-0.18429382
75	0xbe86b9c9	-0.26313618
76	0x3c922bea	0.017843205
77	0xbd73da5c	-0.059534416
78	0xbe504965	-0.20340498
79	0x3e8a1649	0.26970127
80	0xbeec71d6	-0.461806
81	0xbea3bda7	-0.3198063
82	0xbcbc9e50	-0.023024708
83	0xbe213dc2	-0.15746215
84	0x3e952a8d	0.29134026
85	0x3ec1dd89	0.3786433
86	0x3d4a09fe	0.049325936
87	0x3efe4f75	0.49669996
88	0x3eb4172f	0.35173938
89	0xbdca6666	-0.09882812
90	0x3d13711f	0.035996553
91	0xbb9579b4	-0.0045616273
92	0x3d3266eb	0.04355518
93	0x3d529ca2	0.051418908
94	0xbdb6163a	-0.08890958
95	0xbe0a1129	-0.13483109
96	0xbdb50761	-0.08839298
97	0xbe38a552	-0.18031815
98	0x3e174ac4	0.14774615
99	0x3e97f793	0.29681072
