NetworkSaver/fc1_weight.npy (npy, 41040 bytes, 1 tensors)

array f4 [320, 32]
00000000: ad3c 41be 8b97 163e e77f d33d 2f62 25bd
00000010: ebd0 5f3d 1261 70bc a737 df3d 0db2 24be
00000020: 6ef7 1fbe 46a1 dbbc e896 db3d 1641 8abd
00000030: 8032 ce3c 747c a0bc 9a33 0a3d 3e8d 22bd
00000040: 8a17 d5bd 9402 34be f561 15be 5b46 fc3b
00000050: 22a6 19bd bd6c 893d 95c6 33bb 913c 393e
00000060: 6487 e63d a705 003d 5ef8 86bc cab6 c4bd
00000070: 090f d8bd e671 dc3c 74fd aebd 2a94 ab3b
00000080: 5688 ab3d 4daf b93d f065 58ba a5aa 72bd
00000090: 0729 21be 1739 093c 2933 41bd 8614 ce3c
000000a0: 785b 25be 2263 28be de62 e1bb 8e28 00bd
000000b0: 0672 d83d 50b0 5bbb e1e8 0f3e 63c0 843d
000000c0: 1fa2 bc3d d593 a53c feb8 f6bd b6d0 aa3d
000000d0: 17aa 1abe 7dee 60bd 15de a7bc 262f 33bc
000000e0: 55c8 2d3e 1cdc 2abd fe1a bdbc 950d 073e
000000f0: bb56 473d 698e fd3c cfb1 d9bd 8422 d63d
00000100: 4268 07be 7a66 acbd c982 a9bd 4df3 07be
00000110: ea43 fbbd 2025 44bd c94d 8cbd 1b13 043e
00000120: f963 40bd 3692 133c 4e86 c5bc af2d 36bd
00000130: 89e1 403e 17ba 993d 69b6 30be 65b6 f43d
00000140: 9e2b c33d 80ac 75bc 3d2a d33d 8082 e13d
00000150: 15ac ad3d 566f 0ebc 33b6 c6bd ca1d b8bc
00000160: 3448 9f3c 6c39 ab3d 3fcf ecbd 623b dabd
00000170: e308 06be 5502 02be e46d 5cbd d1b8 3bbe
00000180: a150 f4bd dba4 923d aabd c83c 0d96 d3bc
00000190: d486 1bbe 1f40 9bbd 0f6f d2bd e89c cabd
000001a0: 3b32 573e d98c 343e 4f7a 9abd 3844 d5bd
000001b0: 1641 543d c80e f13d 910d 23be a943 833d
000001c0: e185 b13d da9b 61bd a513 16bc 8c33 0abe
000001d0: 22d2 04be e539 e9bd 7823 24bd f048 1fbb
000001e0: 655a 8bbd bb9c 90bd f752 ab3d b0f7 963d
000001f0: c43d 3dbe da59 2e3e 7a18 93bd 9916 693d
00000200: 1655 1ebe 8da7 3dbd c5f1 d73d 1cd3 ea3c
00000210: c6a3 f2bd 77a0 17be e034 3d3e 80fa f63d
00000220: 07f0 823d b894 613d ccc7 b1bd b0cf 82bd
00000230: 47cb 3f3e b521 903d a857 163e 1173 1f3d
00000240: 13de 12bd 64c8 06bc fd3d 06bd 67f1 cebd
00000250: 9944 f8bd 3670 833b 74e9 453e 3349 983c
00000260: dfe3 03bd f511 69bd 6995 143d 8b4b 1dbd
00000270: cd39 7a3d f6e0 213d 634e a1bd 3bb0 b8bd
00000280: d581 89bc 7878 bebd 3f9b 67bd 1fa2 5a3d
00000290: df5c cf3d 1bde aa3d 1157 f23c 983c 1bbe
000002a0: d899 af3d e77d 52bd 208e 12bc a388 3b3c
000002b0: 2a69 a73d 5fc2 013e a378 b73d 6ba7 833d
000002c0: 2191 31be 13e1 0fbd 049f 903c 4a4a b6bc
000002d0: c809 56bd 0ce4 01bb 0f7c 523d 1931 6b3d
000002e0: 53d6 44bd 4314 6abd 9cc2 c1bc f07a 833d
000002f0: f33a 0fbe 9617 cc3d 0e72 723d d077 8abd
00000300: bdd7 dabc 0c50 c43d 49b9 e73d 8d7e 2dbd
00000310: 8a93 73bb c072 10be 0fd0 cc3b 1cc0 a1bd
00000320: d62f 863d 761b 113d 0cdc cabd 81ac 873d
00000330: b86d 6a3e 4a2c 713d 981b 533d 6be4 203d
00000340: 94f6 0b3e 8d1a 4b3c c84f 0d3e abf0 d53c
00000350: 75dc 6c3d d4e7 cfbd aa53 893e 8a5c 56be
00000360: 980d 1f3d 7c5f 1d3d 739c 663e 301e 72bd
00000370: cb6b 2bbd fe3b da3d 5360 e0ba d0be 49bd
00000380: 87dc f23d 18e9 e43d d44a 76bd c3ed 97bd
00000390: 078f b43d 1f30 bfbd 8f9a ac3d dd2d 2fbe
000003a0: baa5 73bd 7d43 1d3c 88a9 02be 703f 123e
000003b0: 13e0 02be a858 fb3d 23e2 043c e2b2 8bbd
000003c0: 385e ae3c fb1c 69bd 1e99 bfbd ff43 37bd
000003d0: 60e8 b9bd f72d 71bd 7af2 a03c c1ab 0cbe
000003e0: 280f 603c ac7f 0abe 25c1 2c3e cae8 f73d
000003f0: 40a4 063e 5126 6dbd 7a6f a5bd 4379 bdbc
-0.18870802 0.14706247 0.1032713 -0.04037684 0.0546426 -0.014671581 0.10899287 -0.16083546
-0.1562173 -0.0268103 0.107221425 -0.067506954 0.025170565 -0.019590594 0.033740617 -0.03968548
-0.1040488 -0.17579108 -0.14588149 0.0076988167 -0.037511952 0.06710193 -0.0027431597 0.1808951
0.112562925 0.03125539 -0.016475853 -0.09605177 -0.10549743 0.02690978 -0.08544436 0.0052361684
0.083756134 0.09066639 -0.0008254936 -0.05924477 -0.15738307 0.008375428 -0.04716793 0.02515627
-0.16148174 -0.16444066 -0.006878241 -0.031288676 0.10568623 -0.0033521838 0.1405368 0.06482007
0.0921061 0.020212093 -0.12047003 0.0834059 -0.15103947 -0.05491494 -0.02049164 -0.010936534
0.16970952 -0.04171382 -0.02308416 0.13188775 0.048666697 0.030951696 -0.106296174 0.10455802
-0.13223365 -0.08417983 -0.082768984 -0.13276406 -0.12268813 -0.047886968 -0.06850774 0.12897913
-0.04697034 0.009007027 -0.024111893 -0.04447716 0.18836035 0.07506197 -0.17257084 0.119488515
0.09529804 -0.0149947405 0.10310791 0.11011219 0.08480088 -0.008693537 -0.097027205 -0.022475142
0.019443609 0.08360562 -0.115629666 -0.106558576 -0.13089328 -0.12696202 -0.053815737 -0.1833222
-0.11929441 0.0716035 0.024504501 -0.025828386 -0.15188152 -0.075805895 -0.10275089 -0.09893209
0.21015255 0.17631854 -0.0754286 -0.10413402 0.051819883 0.117703974 -0.15923144 0.064093895
0.086681135 -0.055080272 -0.009159957 -0.13496226 -0.12970784 -0.11387996 -0.040072888 -0.0024304949
-0.06804351 -0.07061144 0.08365434 0.073714614 -0.18480593 0.17026463 -0.07182403 0.056906316
-0.15462145 -0.046302367 0.10544161 0.028665118 -0.118476436 -0.14807306 0.18477201 0.12059498
0.06393438 0.05507347 -0.08680686 -0.063872695 0.18729888 0.07037679 0.14681876 0.038928095
-0.035856318 -0.008226488 -0.03277396 -0.101046376 -0.12122459 0.0040111793 0.19327337 0.018589592
-0.032199737 -0.05690189 0.0362753 -0.03840212 0.06109028 0.03952118 -0.07876279 -0.09017988
-0.016785542 -0.09300321 -0.05654454 0.053377267 0.10125136 0.083431445 0.029582532 -0.15159833
0.08574265 -0.0513896 -0.008945018 0.011446151 0.08174355 0.12671803 0.089585565 0.06428417
-0.17340519 -0.035126757 0.01765395 -0.02225222 -0.052255422 -0.0019819764 0.051387843 0.05741987
-0.048055958 -0.05714823 -0.023652367 0.06419933 -0.13987331 0.09965436 0.059190802 -0.06761134
-0.0267142 0.0958558 0.11314637 -0.042357016 -0.0037166798 -0.14106274 0.0062503885 -0.0789797
0.06552093 0.03542658 -0.09905252 0.066246994 0.22893417 0.058880128 0.051539987 0.039280336
0.13668281 0.012396467 0.13799965 0.026115736 0.05782743 -0.101516396 0.26821643 -0.20933738
0.038831323 0.03842114 0.22520618 -0.05911082 -0.041850846 0.10655974 -0.0017118551 -0.04925424
0.118584685 0.111772716 -0.060129955 -0.07418396 0.08816343 -0.0933535 0.08427917 -0.17107339
-0.05948422 0.00959861 -0.12759984 0.14282012 -0.1278079 0.12272769 0.008110556 -0.068212286
0.021285161 -0.056912404 -0.09355377 -0.04474258 -0.09077525 -0.058881726 0.019646872 -0.13737394
0.0136754885 -0.13525265 0.16870554 0.12104948 0.13148594 -0.05789787 -0.08077903 -0.023129111
