NetworkSaver/fc1_weight.npy (npy, 163920 bytes, 1 tensors)

array f4 [320, 128]
00000000: 84c0 983c 9d81 f2bd 5ec0 38be c744 b53d
00000010: bffa fb3c 9a0f 9ebd b043 163e 6c94 cb3d
00000020: cb00 043e 9b7c 983c 5726 f3bd e7d1 90bd
00000030: c12f 503d 87bd 3b3e cbd5 70bd caef 303e
00000040: 56d4 0a3e 061d 043e 22e6 aabd 7454 c93d
00000050: 8586 32be 5b69 163c 66c8 10bd 08c7 4f3e
00000060: 01e7 56bd 0825 d33d 9c21 18bd 317d 41bd
00000070: ce7a 87bc 2a50 2c3e 738b cb3d 8f84 01bd
00000080: 7b1d 18bd 98da bfbd 12c0 d2bd 2944 57be
00000090: c7bf b7bd c9fd 42bd 53ef 12bc 08fb 643a
000000a0: 2915 aabd 4348 343e 3d08 033d 3be3 c0bc
000000b0: 266f 24bb 2838 213e e1ab ef3d 3def 34be
000000c0: 50cf 1d3e f2e4 d03c 47fe 40be 6030 b1bd
000000d0: d5bb 61bd 6303 aabd ce00 e73d ebab be3d
000000e0: cf05 ec3d 4ef3 95bd b640 ff3d 60f4 423e
000000f0: c551 3ebd d52f 38be be5b 1e3e 468f 0dbc
00000100: 59ee 17be a718 c9bd 9ae6 5f3c f5e1 f93d
00000110: a47c d03d fbd3 c8bc 7fb5 4d3c 5fa9 52be
00000120: dc14 953d 486e 143c b749 183e 4332 0f3d
00000130: 874e 59bd 834c 553e 2e6c d93d e08d 633d
00000140: d657 123e a8f7 c63d 1878 02be f3dd b53c
00000150: c91c 1ebd fb93 c63c a9fa 9c3d 2e72 b0bd
00000160: 958a f9bd 3041 ac3d 3a89 b63c 39e5 55bd
00000170: efc9 3ebe d660 18bd 098c 463d 734c a5bd
00000180: fecc f7bd 5510 9e3d df23 2fbd 5f63 87bd
00000190: 356f 2e3d f49e 323d b235 b63d fec5 a43d
000001a0: 6b2b 083e e745 32be 55b1 8d3d 590f 05be
000001b0: 771c 443d 7633 0a3d 2e1f 403e 0c94 363e
000001c0: 7b84 383e 7de0 c93c 2f36 39bd dc53 9e3d
000001d0: da68 f6bd 0961 5a3d 395b 8fbd 3cb6 073e
000001e0: a9a4 f63d e804 82bd f6f5 ef3c 1e6a afbc
000001f0: 08b9 023d f463 193e 838f 00bc 0422 cbbd
00000200: f841 b83d 30f1 b23d f7ed 56bd 4757 0c3d
00000210: e89c 7dbb af12 c8bd 3c24 4f3c 18b4 173e
00000220: 4136 10be 5cbb a1bb ad5f 8a3d 2024 ac3b
00000230: 407c 0a3d e4c6 3ebd 7fc0 2bbd 97ce 1fbd
00000240: cdb9 a13d 0f51 debd 5d65 3cbd 5b73 e2bd
00000250: 3200 f4ba e267 363d 2e0d 0bbe af4e 133e
00000260: fd1a fd3c cda4 0fbe 8ab6 8a3d c209 1d3e
00000270: 3d47 01bd 1d8c b9bd 8c6e cf3d db46 b1bd
00000280: 544e 0b3e 9c14 443d ae53 adbc b3a9 ffbd
00000290: 02d0 0a3e 43e9 513d d402 1b3d 7e32 493e
000002a0: 2433 4ebd b2a1 af3d ef79 e53d 649a 31bd
000002b0: 7cf9 553e e80c cabb f133 28bd ff3b ef3c
000002c0: 7345 033b 5467 eabd 8601 18bd 296d da3d
000002d0: 302a 0dbe 018f 2bbd 96db 72bc 2571 ec3d
000002e0: 7138 99bc cf61 0b3d 4ef7 0cbe 24ef 383d
000002f0: a7c8 65bc db8d 05be b6ce c13c 2902 373c
00000300: c6d8 8f3d f445 bcbd bff9 f73d 992b 903d
00000310: f3b0 b3bb 58bc e03d c0c3 24be 2b66 b2bd
00000320: b392 523d ffee 2d3d b74e 69bd cb48 25be
00000330: 188f 043d dd15 e83d 78d2 483c 003d 1d3d
00000340: b0b2 473e b2ad d33d b4c3 cbbd 1fa3 62bd
00000350: eb4b dd3c 5168 fcbc f6e5 08be f20d c1bc
00000360: f880 c0bd 0286 213e 5dc0 f13d 2e7f 43be
00000370: 0c77 02be 86a7 473d 5424 56bc e1c1 633d
00000380: 1cc8 083e 8e4a 153e 3cb6 babd ffc1 4d3e
00000390: 549d 8c3d 580e 1dbc 1873 27be a53c 233e
000003a0: b92c a03d 728c 1b3e f93e 893d 9eb8 82bd
000003b0: 262a e6bd a466 bebd fd57 04be 4723 983c
000003c0: 5e21 873d 22fb 853d c943 a7bc c33b d73c
000003d0: f269 d9bc bc1b 733d a369 513d 91a6 bdbd
000003e0: 8d14 c63b 0d02 3f3d 64b2 4dbd 563b 423d
000003f0: a567 0e3e 41df f1bc 0f4e e9bd 233c 73be
0.018646486 -0.11841128 -0.18042132 0.08851009 0.030759213 -0.077178195 0.14674258 0.099404186
0.12890927 0.018614104 -0.11872547 -0.07071286 0.05082679 0.18334018 -0.05879764 0.17278972
0.13557562 0.12901697 -0.083446756 0.09830561 -0.17434128 0.009180392 -0.035347365 0.20290768
-0.052466396 0.103097975 -0.037141427 -0.047238532 -0.01653805 0.16827455 0.09938707 -0.03162056
-0.03713749 -0.09367865 -0.10290541 -0.21022095 -0.089721255 -0.04760531 -0.008968192 0.00087349163
-0.08304817 0.1760569 0.03199028 -0.023545852 -0.0025090664 0.15744078 0.11702705 -0.17669387
0.15411115 0.025499795 -0.18846999 -0.08651805 -0.05511077 -0.08301427 0.1127945 0.093101345
0.115245454 -0.07321797 0.124635145 0.19038534 -0.0464647 -0.17986996 0.15464684 -0.008640116
-0.14837016 -0.09819155 0.01366582 0.12201301 0.10180023 -0.024515143 0.012555479 -0.20572422
0.07279369 0.009059496 0.1487187 0.034960043 -0.053053405 0.20829968 0.10616337 0.055555224
0.14291319 0.097152054 -0.12741125 0.02220056 -0.03860167 0.024240484 0.07664997 -0.08615528
-0.121846355 0.08410871 0.022282232 -0.052220557 -0.18631719 -0.037201725 0.04847339 -0.08071222
-0.12099646 0.07717959 -0.04275882 -0.066107504 0.042586524 0.04360862 0.0889696 0.080455765
0.13297813 -0.17409478 0.06918589 -0.12994136 0.04787871 0.033740483 0.18761894 0.17829913
0.18019287 0.024643177 -0.04521769 0.07730839 -0.120317176 0.053315196 -0.06999821 0.1325311
0.12043125 -0.06348592 0.029292088 -0.021412905 0.03191474 0.14979535 -0.007846716 -0.09918597
0.089969575 0.08737409 -0.052473035 0.03426292 -0.003869826 -0.097691886 0.012642916 0.14814794
-0.14083196 -0.004935665 0.0675653 0.00525333 0.0338099 -0.046576396 -0.041931625 -0.03901538
0.07896767 -0.108553044 -0.045995105 -0.110571586 -0.0018615781 0.044532664 -0.13579246 0.14385484
0.030896658 -0.1402771 0.06773098 0.15335754 -0.03156208 -0.090599276 0.10128507 -0.08656093
0.13604099 0.047871217 -0.021158066 -0.124835394 0.13555911 0.051247846 0.037844494 0.19648167
-0.05034174 0.08575763 0.112048976 -0.04336013 0.20895952 -0.0061660893 -0.04106516 0.029203413
0.0020030409 -0.114454895 -0.037110828 0.10665352 -0.13785625 -0.041884426 -0.014822861 0.11545018
-0.018703671 0.034028824 -0.13766214 0.045149937 -0.01402489 -0.13042395 0.023658138 0.011169949
0.07023768 -0.0919303 0.12108182 0.070395656 -0.0054837405 0.10973424 -0.16090298 -0.08710893
0.051409435 0.042464253 -0.056959834 -0.1614105 0.032363027 0.11332295 0.012257211 0.038388252
0.19501758 0.10335864 -0.09949437 -0.055331346 0.02701374 -0.03081146 -0.13368973 -0.02356622
-0.09399599 0.15773776 0.118042685 -0.19091484 -0.12740725 0.048743747 -0.013070185 0.05560482
0.13357586 0.14579222 -0.0911679 0.20093535 0.068659455 -0.009585939 -0.16352499 0.15941103
0.0782103 0.15190294 0.06701464 -0.06382869 -0.11238508 -0.09296921 -0.1292419 0.018571509
0.06598161 0.065420404 -0.020418065 0.026273614 -0.026539776 0.05935262 0.051126134 -0.09260286
0.0060449303 0.046632815 -0.050218955 0.04741987 0.13906725 -0.029525401 -0.113918416 -0.23753409
