NetworkSaver/fc1_weight.npy (npy, 5200 bytes, 1 tensors)

array f4 [80, 16]
-0.0025895352 0.1133794 -0.032125574 -0.042686716 -0.06595024 0.07317203 -0.023448627 -0.0054905545
-0.0003926449 -0.00056464336 -0.1306309 -0.03036227 0.03937546 -0.03146881 0.08441535 0.13137464
0.13703334 -0.05606227 -0.09404022 0.10312969 0.12690696 -0.007956388 -0.12654875 -0.0686713
0.089857146 -0.042926855 0.10369467 0.0033260526 0.038698774 0.15343498 -0.022961583 0.047824636
0.55913305 -0.09033793 0.4409386 0.28194103 0.015727371 0.004076359 0.39883804 -0.16360687
-0.024548749 0.059132256 -0.17400876 0.19120373 0.4360566 0.3851339 -0.09279824 0.39010116
-0.22229494 0.58880544 -0.2594639 -0.33291993 0.32487962 -0.10923335 -0.3253508 0.56630003
0.5214012 0.47066987 0.41269702 -0.15484504 -0.36701995 -0.4414541 -0.07504286 -0.2970751
-0.043432698 -0.42147097 -0.1695044 -0.13384277 -0.37558833 -0.09343775 0.004706552 -0.3709094
-0.2914143 -0.27846393 -0.37289447 -0.030574672 -0.101883195 -0.03439509 0.080184065 -0.23857884
0.09619497 -0.29657337 0.124778554 0.09948163 -0.25381452 -0.049188823 0.25643754 -0.1920801
-0.19234228 -0.16374063 -0.32861474 0.15307169 0.2389753 0.2472352 0.13108376 0.1402189
-0.18023711 0.22613882 -0.20270026 -0.19824144 0.25037497 0.024568506 -0.24824658 0.20504266
0.19345444 0.09188788 0.26183647 -0.33939803 -0.33974245 -0.35875392 -0.22536683 -0.3535676
0.23969679 -0.4984559 0.17835128 0.27055743 -0.3758068 -0.14343475 0.25634137 -0.56880796
-0.62253696 -0.46841797 -0.41571546 0.21074238 0.24123147 0.2304188 0.050615836 0.23670942
-0.0377485 0.07323269 -0.054978438 -0.110212006 0.042743552 -0.14310078 0.015629515 -0.09663924
-0.047142703 0.06814972 -0.10196995 0.0468157 -0.111003295 0.028551714 -0.061016597 0.008311203
-0.049070377 -0.10710215 -0.0532188 -0.0938377 -0.17889266 -0.189655 -0.100020364 -0.11380564
-0.07392729 -0.03529982 0.05060235 -0.04583302 -0.024385497 0.08999104 -0.14307025 0.0524614
0.13238269 -0.20041443 0.17730269 0.074767716 -0.15552396 -0.16207074 0.089994416 -0.23260137
-0.24129991 -0.17085779 -0.12628424 0.021579053 0.15493694 0.15400705 -0.009251211 0.117624715
0.10333547 -0.34830213 0.15165897 0.107208095 -0.21041285 -0.07273214 0.10264827 -0.46458077
-0.31412825 -0.3105433 -0.3044591 0.013483949 0.18541327 0.08648646 0.024231168 0.07631193
0.09421169 -0.0924092 0.022900714 0.05418427 -0.1648541 -0.0040209405 -0.039642517 -0.04707667
0.07831721 -0.09572067 0.054828893 -0.11115829 0.09441169 0.05379357 0.092419565 0.00904905
0.22402062 -0.3213403 0.17530452 0.16940694 -0.37181178 -0.3224724 0.21300466 -0.2476669
-0.18374553 -0.08403542 -0.22400837 0.17456536 0.16261852 0.22723328 0.10915597 0.11978436
0.3460221 -0.34361425 0.436254 0.22375098 -0.09373468 -0.067961976 0.38368112 -0.0871134
-0.13306423 -0.07102423 -0.26199433 0.1421279 0.32977188 0.32877034 0.15893038 0.3724145
0.03979258 -0.41771594 0.05528663 0.03777788 -0.3265074 -0.14652725 -0.032050535 -0.30718803
-0.26487508 -0.29139957 -0.31913516 0.07688485 0.069344856 0.0897499 0.043504376 0.102449186
00000000: 31b5 29bb 7533 e83d 1b96 03bd 44d8 2ebd
00000010: eb10 87bd 38db 953d 5617 c0bc 1cea b3bb
00000020: e8db cdb9 9304 14ba 1bc4 05be 4cba f8bc
00000030: 2a48 213d 70e5 00bd f4e1 ac3d 1387 063e
00000040: 7852 0c3e 8da1 65bd 2998 c0bd a935 d33d
00000050: e6f3 013e 835b 02bc ff95 01be 8aa3 8cbd
00000060: 0607 b83d 12d4 2fbd df5d d43d e7f9 593b
00000070: 9b82 1e3d 0f1e 1d3e ee19 bcbc c4e3 433d
00000080: 5823 0f3f 1803 b9bd b4c2 e13e 935a 903e
00000090: b0d6 803c fa92 853b 8034 cc3e 8f88 27be
000000a0: 751a c9bc aa34 723d 5a2f 32be e9ca 433e
000000b0: d042 df3e 4530 c53e 010d bebd 57bb c73e
000000c0: 49a1 63be f4bb 163f 74d8 84be 7b74 aabe
000000d0: 9f56 a63e bcb5 dfbd 6194 a6be 0af9 103f
000000e0: 8d7a 053f a4fb f03e 064d d33e b38f 1ebe
000000f0: 0aea bbbe 4606 e2be 12b0 99bd 3a1a 98be
00000100: 7ce6 31bd 0bcb d7be 9092 2dbe 140e 09be
00000110: 1d4d c0be 4b5c bfbd 6b39 9a3b d6e7 bdbe
00000120: 4134 95be d392 8ebe 06ec bebe bc77 fabc
00000130: 23a8 d0bd dee1 0cbd 8b37 a43d 034e 74be
00000140: de01 c53d 77d8 97be e68b ff3d 06bd cb3d
00000150: faf3 81be 387a 49bd c84b 833e a5b0 44be
00000160: 60f5 44be a0ab 27be 3140 a8be d3be 1c3e
00000170: f1b5 743e 392b 7d3e d23a 063e 8b95 0f3e
00000180: 1490 38be ef90 673e a890 4fbe ceff 4abe
00000190: 2631 803e e443 c93c 5a34 7ebe b4f6 513e
000001a0: ec18 463e b62f bc3d 6e0f 863e 94c5 adbe
000001b0: b9f2 adbe 98ae b7be 90c6 66be d006 b5be
000001c0: 1373 753e 9d35 ffbe b8a1 363e 8186 8a3e
000001d0: c069 c0be 8fe0 12be 2d3f 833e 669d 11bf
000001e0: 955e 1fbf 7bd4 efbe a8d8 d4be dacc 573e
000001f0: 6205 773e e8f2 6b3e 8d52 4f3d f463 723e
00000200: 2c9e 1abd 05fb 953d 1231 61bd d5b6 e1bd
00000210: dd13 2f3d 0389 12be 7809 803c cbea c5bd
00000220: b518 41bd 1592 8b3d 9fd5 d0bd d2c1 3f3d
00000230: b255 e3bd 49e5 e93c 8aec 79bd b62b 083c
00000240: 05fe 48bd 5f58 dbbd f5fb 59bd fb2d c0bd
00000250: a32f 37be ec34 42be 7ad7 ccbd ee12 e9bd
00000260: 3167 97bd 8b96 10bd 6944 4f3d 68bb 3bbd
00000270: 18c4 c7bc 394d b83d 0281 12be c4e1 563d
00000280: 548f 073e 7139 4dbe d68e 353e d11f 993d
00000290: ac41 1fbe dff5 25be fe4e b83d 0e2f 6ebe
000002a0: 5317 77be 58f5 2ebe a850 01be 8ec6 b03c
000002b0: caa7 1e3e 06b4 1d3e 6492 17bc 3ae5 f03d
000002c0: 8ca1 d33d a854 b2be 7d4c 1b3e eb8f db3d
000002d0: 7776 57be 97f4 94bd 4239 d23d 88dd edbe
000002e0: 6bd5 a0be 88ff 9ebe 10e2 9bbe c8eb 5c3c
000002f0: fadc 3d3e d01f b13d 7180 c63c 6e49 9c3d
00000300: 0ff2 c03d 0941 bdbd 479a bb3c 53f0 5d3d
00000310: 83cf 28be 18c2 83bb 3160 22bd 77d3 40bd
00000320: c664 a03d 3309 c4bd 4394 603d f5a6 e3bd
00000330: eb5a c13d a556 5c3d 7846 bd3d 7742 143c
00000340: a965 653e b786 a4be 0783 333e 0379 2d3e
00000350: 1d5e bebe 1a1b a5be e51d 5a3e 649c 7dbe
00000360: ca27 3cbe c31a acbd 7362 65be 43c1 323e
00000370: 7885 263e d7af 683e 2a8d df3d 8151 f53d
00000380: cf29 b13e 35ee afbe af5c df3e fa1e 653e
00000390: f8f7 bfbd a62f 8bbd da71 c43e 8368 b2bd
000003a0: fd41 08be 2775 91bd 1f24 86be fa89 113e
000003b0: dcd7 a83e 9654 a83e a5be 223e 1dad be3e
000003c0: 8bfd 223d ddde d5be 3c74 623d fabc 1a3d
000003d0: fa2b a7be 3d0b 16be 6c47 03bd c047 9dbe
000003e0: b59d 87be 5332 95be af65 a3be ce75 9d3d
000003f0: ad04 8e3d ccce b73d a531 323d e1d0 d13d
