NetworkSaver/fc2_weight.npy (npy, 1104 bytes, 1 tensors)

array f4 [128, 2]
0.06126119 0.124363564 0.16193426 -0.054326072 0.17692141 -0.028065888 -0.016028754 0.05416601
0.026042879 -0.09373878 -0.01607954 0.102071024 -0.08813575 0.037458148 0.24172752 -0.022965422
0.10097328 -0.109230064 0.08682795 -0.06416979 0.23481923 -0.074698344 -0.14201412 0.12817839
0.09452732 -0.11371205 0.15968858 -0.080161504 -0.025207937 0.15161903 0.14073406 -0.076374665
0.14221948 -0.10426234 0.031043034 0.084226914 -0.19153692 0.0998378 -0.17799276 0.05724019
-0.06302164 0.13665566 0.02764243 -0.0988374 0.061646495 -0.013045439 0.06485712 -0.25185505
0.12724008 -0.11507076 0.053092543 -0.10982279 -0.06842191 0.15860821 0.03586681 -0.23518407
-0.018245004 0.20287323 -0.003589883 -0.1709629 -0.19036797 0.068519734 0.1266531 -0.19736351
-0.005342885 0.10180541 0.02136024 0.28318337 0.11219647 -0.17910111 -0.094949804 0.07974318
0.032722678 -0.2281732 0.104704455 -0.087329246 -0.033521097 0.117666505 0.2635088 -0.13705523
0.04158482 -0.16811042 0.10457297 -0.143961 0.15669896 -0.19983248 0.1967106 -0.05283821
0.10613783 -0.118243635 0.1486333 -0.13900964 0.1213247 -0.14540306 -0.09614793 0.12524006
0.24405885 -0.12779805 -0.004041855 -0.16698031 -0.16706958 0.024260605 -0.18423407 0.036236882
-0.14705294 0.06718925 -0.06637193 -0.12290574 -0.06186177 0.20913221 -0.017608741 0.1167864
-0.07291156 0.24308264 -0.09592701 0.16754702 -0.19281524 0.0870043 -0.092054985 0.11907646
-0.25271425 -0.019584306 -0.005690466 0.07378613 0.24013267 0.007785829 -0.04123863 0.12212042
0.23142202 -0.10227128 -0.15202709 0.22690046 0.13080087 -0.093476534 -0.1811477 0.08649784
0.0012001905 -0.09485539 -0.009689508 -0.24736103 -0.058435984 -0.010245852 -0.16440551 0.091822006
-0.069857225 0.1343073 0.16625772 -0.122588895 0.107118 -0.21333325 -0.10936955 0.2065972
0.1321807 -0.2567636 0.1865421 -0.060429905 0.20781907 -0.04961935 0.027762104 -0.04381196
-0.035895277 -0.2854611 -0.16048376 0.035892628 -0.0846936 0.14090216 0.1779459 -0.080175646
0.046247907 -0.19834416 -0.18999706 0.1322605 0.077250905 -0.1218538 0.040099673 0.04004376
-0.25696626 -0.029950121 0.017360337 -0.2545506 0.17102236 -0.09128348 0.042522483 0.17320326
-0.0017799522 -0.06797586 -0.10864249 0.16997327 0.033174314 -0.21925335 -0.096680984 -0.056148022
0.20087464 -0.12337563 0.06490653 -0.1788215 -0.1388938 0.090918705 0.17918487 -0.059680715
-0.090775065 -0.07087977 0.12607633 -0.11062647 0.085762225 -0.093577445 0.22733344 0.0032032114
0.12291954 -0.22362395 0.06953875 0.070379026 0.23262723 -0.06650452 -0.09992886 0.16346592
-0.21078527 0.08673158 0.12122884 -0.074628755 0.21261412 -0.02919612 -0.12450193 0.061709315
0.10177252 -0.13757688 0.029318888 -0.0790889 -0.08368371 0.087065786 -0.08092893 0.16374032
0.17894456 -0.075776055 0.12127352 -0.1199593 0.11215881 -0.0002768784 -0.18218675 0.162883
0.09778978 -0.121238075 0.06670956 -0.021060884 0.20362134 -0.050033107 0.16200407 -0.14189205
0.108519696 -0.11913683 0.13765967 -0.109974846 0.1398592 -0.22732744 -0.066469885 0.18232465
00000000: 03ed 7a3d 53b2 fe3d 18d2 253e 0485 5ebd
00000010: e32a 353e 6fea e5bc bc4e 83bc 2edd 5d3d
00000020: e057 d53c 1efa bfbd 3db9 83bc 9d0a d13d
00000030: 8480 b4bd b76d 193d 6b87 773e fb21 bcbc
00000040: 14cb ce3d 03b4 dfbd dad2 b13d 736b 83bd
00000050: 7474 703e 72fb 98bd 266c 11be 3241 033e
00000060: 8a97 c13d dde1 e8bd 6785 233e b72b a4bd
00000070: e080 cebc 0542 1b3e 971c 103e 526a 9cbd
00000080: fca1 113e 7e87 d5bd f64d fe3c 297f ac3d
00000090: 4122 44be c377 cc3d bc43 36be b174 6a3d
000000a0: 7d11 81bd 76ef 0b3e 6172 e23c 436b cabd
000000b0: 0981 7c3d 89bc 55bc cfd3 843d 25f3 80be
000000c0: 394b 023e 38aa ebbd 9177 593d c5ea e0bd
000000d0: c920 8cbd 316a 223e 13e9 123d 18d4 70be
000000e0: 8c76 95bc 00be 4f3e 3e44 6bbb e610 2fbe
000000f0: d2ef 42be 1354 8c3d 5ab1 013e a919 4abe
00000100: 5e13 afbb 5b7f d03d acfb ae3c 69fd 903e
00000110: 43c7 e53d 4866 37be 0b75 c2bd 6450 a33d
00000120: 3708 063d 3ca6 69be 4a6f d63d add9 b2bd
00000130: 6b4d 09bd 23fb f03d a0ea 863e 3558 0cbe
00000140: d854 2a3d 2325 2cbe 5a2a d63d 836a 13be
00000150: b175 203e e3a0 4cbe 816e 493e e16c 58bd
00000160: ca5e d93d b829 f2bd 5433 183e 8b58 0ebe
00000170: 1679 f83d 8ae4 14be 35e9 c4bd ee3e 003e
00000180: 90ea 793e 7edd 02be 8a71 84bb e3fc 2abe
00000190: 4a14 2bbe 2dbe c63c dba7 3cbe 206d 143d
000001a0: 0c95 16be 849a 893d 02ee 87bd 01b6 fbbd
000001b0: c462 7dbd c126 563e 3540 90bc b52d ef3d
000001c0: a852 95bd a8ea 783e 6175 c4bd 7291 2b3e
000001d0: 5c71 45be 4f2f b23d 5387 bcbd 5cde f33d
000001e0: c363 81be 446f a0bc 1777 babb 2f1d 973d
000001f0: 57e5 753e 4420 ff3b d6e9 28bd 451a fa3d
00000200: e5f9 6c3e 9b73 d1bd fdac 1bbe 9858 683e
00000210: aaf0 053e a070 bfbd c87e 39be c825 b13d
00000220: b64f 9d3a 8b43 c2bd bec0 1ebc 364c 7dbe
00000230: 925a 6fbd 38de 27bc eb59 28be 2d0d bc3d
00000240: 4e11 8fbd da87 093e 773f 2a3e e30f fbbd
00000250: af60 db3d 0874 5abe 25fd dfbd 378e 533e
00000260: 615a 073e 8576 83be e404 3f3e 5985 77bd
00000270: 86ce 543e a93d 4bbd 5a6d e33c 2b74 33bd
00000280: ed06 13bd f527 92be db55 24be 2604 133d
00000290: d773 adbd a848 103e 7337 363e 2133 a4bd
000002a0: 726e 3d3d bb1a 4bbe 978e 42be 4c6f 073e
000002b0: b935 9e3d 7c8e f9bd 8e3f 243d ed04 243d
000002c0: 1591 83be f559 f5bc 4437 8e3c 7554 82be
000002d0: 7c20 2f3e d5f2 babd 0e2c 2e3d 325c 313e
000002e0: 494d e9ba ed36 8bbd f47f debd 790d 2e3e
000002f0: cae1 073d f383 60be ae00 c6bd 78fb 65bd
00000300: 15b2 4d3e 5dac fcbd b7ed 843d fc1c 37be
00000310: 2d3a 0ebe 9633 ba3d 3d7c 373e c473 74bd
00000320: 47e8 b9bd 6a29 91bd 271a 013e 2190 e2bd
00000330: 1ba4 af3d 88a5 bfbd 19ca 683e f8ec 513b
00000340: 3dbd fb3d adfd 64be 556a 8e3d e122 903d
00000350: d535 6e3e 8633 88bd 81a7 ccbd 9c63 273e
00000360: 18d8 57be 54a0 b13d d346 f83d f6d6 98bd
00000370: 84b7 593e b42c efbc defa febd e8c2 7c3d
00000380: 1c6e d03d f4e0 0cbe 2a2e f03c 5cf9 a1bd
00000390: 5d62 abbd 8c4f b23d 11be a5bd 8bab 273e
000003a0: 3e3d 373e 7a30 9bbd 405e f83d 39ad f5bd
000003b0: 85b3 e53d fd29 91b9 2a8f 3abe cdca 263e
000003c0: 0246 c83d ab4b f8bd 069f 883d e087 acbc
000003d0: 1d82 503e 84ef 4cbd 65e4 253e 264c 11be
000003e0: 933f de3d 03fe f3bd a8f6 0c3e 7e3a e1bd
000003f0: 4037 0f3e 86c8 68be 5d21 88bd 50b3 3a3e
